enhanced_digit_model.pth (torch, 561109 bytes, 10 tensors)

conv1.weight f4 [32, 1, 3, 3]
-0.35541853 0.23644322 0.16020182 0.3158082 -0.13024071 -0.19993828 0.059889033 0.27853462
-0.07277241 -0.19203632 0.10962164 -0.29876548 0.1810853 -0.19359058 -0.20954698 -0.08020329
-0.010680485 0.1806008 0.04049127 -0.035348248 0.2511111 -0.2480404 0.2502765 -0.16833507
0.26318496 -0.039100192 -0.35978478 -0.2713167 -0.2721658 0.16033404 0.013211047 -0.14602728
-0.30262718 0.15986927 0.23084314 0.19961947 -0.098001525 0.22788003 -0.2795811 -0.24671346
-0.17603795 -0.28038377 -0.11226032 -0.1265441 0.077011436 0.0057102563 -0.21736716 -0.017180819
-0.092090905 0.26303768 0.27662316 0.12632692 -0.3055173 -0.056856956 0.039800458 -0.14729904
0.0874195 0.060121268 0.12055906 0.07583018 0.14826165 0.37037668 0.10917904 -0.29110843
-0.064235464 0.32080358 -0.24690887 0.200614 -0.08782844 -0.24697147 -0.09377718 0.0049569784
0.11899094 -0.10339801 0.017867737 0.27080387 0.13495749 -0.30380225 0.08656496 -0.0993633
0.104104325 -0.34494373 0.24280886 -0.16574079 -0.24115664 -0.2556681 -0.24805607 -0.32184565
0.1676199 0.06732559 -0.264649 0.1508276 0.15658756 0.09232973 -0.278883 -0.014909307
0.05294022 -0.1597556 -0.1067576 0.21731505 -0.31003886 -0.14960629 -0.17099284 0.21362528
-0.24352732 -0.115827546 -0.29137126 -0.1697993 -0.09226147 0.1037194 0.059774447 0.16174237
-0.0489649 -0.19216889 -0.2408438 0.34087148 0.34310728 0.086708106 0.18809815 -0.33831292
0.33373398 0.19385973 -0.032686263 0.30109274 0.34220394 -0.27314234 0.15945803 0.11945989
0.06906707 0.29987827 -0.26787716 0.12519547 -0.30296966 -0.36509234 0.22954655 -0.037374545
-0.089065894 0.31802207 0.32893384 0.31199616 0.122687206 0.031353462 0.040440273 0.39145178
-0.14683913 -0.24101944 -0.23238972 0.23359162 -0.104935005 0.16776685 -0.23567078 0.3657248
-0.21484351 -0.0970821 0.024982542 -0.045377936 -0.0050552557 -0.1849297 0.16691382 -0.021308383
0.26832524 -0.29936755 -0.04987591 -0.027945187 0.04554632 -0.21142171 0.15361026 0.21834822
0.0450038 0.061095465 0.34311274 0.09975186 -0.296703 0.28019395 0.3669119 -0.07099751
-0.061318934 -0.09265339 0.2020842 -0.23297717 0.12417244 0.2814105 0.27694693 0.056867827
-0.027251728 -0.06640793 -0.0790041 -0.19396926 -0.120864175 -0.110175475 -0.21757433 0.31578338
0.01056518 0.25691146 -0.2927138 -0.29783633 0.19516069 0.0776357 0.20045152 0.15232006
-0.3256044 -0.07312742 0.11441988 0.16203104 -0.096663505 -0.35820973 -0.20577998 0.12354736
-0.32406372 0.047071896 -0.07220968 0.044241592 -0.08891867 0.23794717 0.19996482 0.34868264
-0.30260012 0.07440902 -0.16835025 0.11559196 0.14890988 -0.110348284 0.29438046 0.3259111
0.107438155 -0.051734176 -0.096857056 -0.35374194 -0.2760686 -0.21246573 -0.31988618 -0.25430077
-0.18791571 0.040224236 -0.26685354 0.05290862 -0.031196801 -0.09695979 0.21748084 0.30662653
0.32145512 -0.09379979 -0.18262698 -0.3975681 0.16905788 0.19412841 -0.05342639 -0.075410925
0.17403682 -0.23778737 -0.31928924 -0.12911794 0.0066636917 0.017763153 0.27012736 -0.046826676
00000000: 6bf9 b5be 2c1e 723e f20b 243e 9db1 a13e
00000010: d25d 05be 9fbc 4cbe 344e 753d 179c 8e3e
00000020: b409 95bd 2ba5 44be 4f81 e03d caf7 98be
00000030: 6d6e 393e 9c3c 46be 7c93 56be 9f41 a4bd
00000040: 33fd 2ebc 6bef 383e 2dda 253d 53c9 10bd
00000050: a291 803e 4dfe 7dbe 3e24 803e 0760 2cbe
00000060: 2ec0 863e 8627 20bd b635 b8be 06ea 8abe
00000070: 5159 8bbe 9b2e 243e 2673 583c 2d88 15be
00000080: f3f1 9abe c5b4 233e 2562 6c3e 0c69 4c3e
00000090: 06b5 c8bd 6259 693e 4125 8fbe 74a2 7cbe
000000a0: 4b43 34be 768e 8fbe bde8 e5bd c794 01be
000000b0: 2cb8 9d3d 1a1d bb3b 7f95 5ebe cabe 8cbc
000000c0: 289a bcbd e0ac 863e 8da1 8d3e d85b 013e
000000d0: c36c 9cbe d7e2 68bd ce05 233d 8fd5 16be
000000e0: ff08 b33d b841 763d abe7 f63d da4c 9b3d
000000f0: e7d1 173e 03a2 bd3e 4399 df3d 2a0c 95be
00000100: e28d 83bd 5e40 a43e aed5 7cbe c26d 4d3e
00000110: 66df b3bd 17e6 7cbe 400e c0bd 266e a23b
00000120: 86b1 f33d 56c2 d3bd 5c5f 923c cea6 8a3e
00000130: 4c32 0a3e f88b 9bbe f848 b13d fc7e cbbd
00000140: a634 d53d 779c b0be e3a2 783e f4b7 29be
00000150: c4f1 76be eee6 82be 6902 7ebe f4c8 a4be
00000160: 8da4 2b3e 00e2 893d 1380 87be 8d72 1a3e
00000170: 7d58 203e 5f17 bd3d c1c9 8ebe 2a46 74bc
00000180: d8d7 583d f996 23be bba3 dabd d687 5e3e
00000190: 6abd 9ebe 6432 19be bf18 2fbe 96c0 5a3e
000001a0: 3a5f 79be fe36 edbd 9d2e 95be dedf 2dbe
000001b0: 95f3 bcbd d66a d43d 0dd6 743d cb9f 253e
000001c0: 6b8f 48bd ecc7 44be c29f 76be b586 ae3e
000001d0: c2ab af3e 0594 b13d cd9c 403e 5a37 adbe
000001e0: 2edf aa3e 2a83 463e 08e2 05bd d428 9a3e
000001f0: 5b35 af3e 50d9 8bbe f748 233e 63a7 f43d
00000200: 0973 8d3d a589 993e 3227 89be 3e33 003e
00000210: d71e 9bbe 62ed babe 400e 6b3e 0d16 19bd
00000220: 2e68 b6bd cad3 a23e 046a a83e f6bd 9f3e
00000230: 6e43 fb3d 7d6c 003d b3a4 253d 5e6c c83e
00000240: ff5c 16be cdcd 76be 92f7 6dbe a432 6f3e
00000250: 2ae8 d6bd 13cb 2b3e ae53 71be 4840 bb3e
00000260: f0ff 5bbe fbd2 c6bd 30a8 cc3c 37de 39bd
00000270: 8fa6 a5bb 365e 3dbe 75eb 2a3e eb8e aebc
00000280: ed61 893e b446 99be af4a 4cbd 4eed e4bc
00000290: c78e 3a3d ef7e 58be 024c 1d3e ad96 5f3e
000002a0: e855 383d 3d3f 7a3d 79ac af3e b44a cc3d
000002b0: 75e9 97be 9575 8f3e e0db bb3e 2467 91bd
000002c0: 9029 7bbd 0fc1 bdbd 29ef 4e3e 9191 6ebe
000002d0: 1f4e fe3d 0915 903e fdcb 8d3e 3dee 683d
000002e0: 043f dfbc e100 88bd e7cc a1bd e19f 46be
000002f0: a387 f7bd aea3 e1bd cecb 5ebe 5cae a13e
00000300: 9419 2d3c e689 833e 95de 95be 017e 98be
00000310: 34d8 473e 77ff 9e3d 2a43 4d3e caf9 1b3e
00000320: 9fb5 a6be d4c3 95bd f854 ea3d 77eb 253e
00000330: 84f7 c5bd 4467 b7be fdb7 52be 6606 fd3d
00000340: aeeb a5be 76ce 403d abe2 93bd ac36 353d
00000350: fe1a b6bd 6ca8 733e 94c3 4c3e 8886 b23e
00000360: 67ee 9abe c263 983d 0264 2cbe 7abb ec3d
00000370: d57b 183e 48fe e1bd 09b9 963e d2dd a63e
00000380: 8908 dc3d 37e7 53bd fe5c c6bd aa1d b5be
00000390: dd58 8dbe 9e90 59be 1fc8 a3be b633 82be
000003a0: fa6c 40be 2bc2 243d 07a1 88be b6b6 583d
000003b0: 6f90 ffbc db92 c6bd 4cb3 5e3e 27fe 9c3e
000003c0: c495 a43e 1b1a c0bd 9102 3bbe 0c8e cbbe
000003d0: 821d 2d3e 99c9 463e a1d5 5abd 0b71 9abd
000003e0: b536 323e 887e 73be e179 a3be 7e37 04be
000003f0: 195b da3b 0884 913c 224e 8a3e 54cd 3fbd

conv1.bias f4 [32]
0.03995607 -0.032318022 -0.20166476 -0.16584373 0.24286571 0.020041488 -0.23017283 -0.28215137
0.15161511 0.0534099 0.24343285 0.051696125 -0.20861015 0.22389051 0.21122804 0.21172349
-0.39461604 -0.37277526 0.3629141 -0.23071463 -0.0662175 -0.33639303 0.21159817 0.044858195
-0.014560501 0.117623225 -0.39253962 -0.22985047 -0.47541323 -0.0008454245 0.13388485 -0.23726435
00000000: faa8 233d e75f 04bd 3581 4ebe f0d2 29be
00000010: cab1 783e 0c2e a43c 6db2 6bbe 2576 90be
00000020: fe40 1b3e 57c4 5a3d 7646 793e 51bf 533d
00000030: e69d 55be 8e43 653e 2a4c 583e 0bce 583e
00000040: 1d0b cabe 66dc bebe e0cf b93e 7540 6cbe
00000050: 0a9d 87bd b53b acbe 31ad 583e 3abd 373d
00000060: 2b8f 6ebc 72e4 f03d f4fa c8be ec5d 6bbe
00000070: 5d69 f3be 7a9f 5dba 1c19 093e 6df5 72be

conv2.weight f4 [64, 32, 3, 3]
0.12732838 0.10783069 0.01244102 0.08577525 -0.011501513 -0.06810023 0.01459119 -0.06897009
-0.07773143 -0.0055079116 0.00040361792 -0.03439316 -0.13396516 -0.08909136 -0.12818062 0.022696834
0.09054628 0.06797372 0.014738092 0.06812823 0.06674063 0.04038825 0.047604386 0.06884842
0.074956395 0.028891299 -0.03259886 -0.015054429 -0.015504244 -0.10035627 -0.14025636 -0.12202579
-0.21342048 0.0662458 0.096931875 0.074512325 -0.07879865 -0.03496662 -0.0147876125 -0.04043081
-0.028474137 -0.020118054 -0.026230281 0.04137169 0.021784373 -0.016325185 0.0054309694 0.05481546
0.025614664 0.004634785 -0.049753465 -0.10143487 -0.021037327 -0.10209939 0.0031780442 0.06611581
-0.019706802 -0.06692991 -0.019302217 -0.099755906 -0.124641776 -0.07479385 -0.1489914 0.063230015
-0.07066877 -0.08231597 0.05704018 0.048446726 0.014358468 -0.0319345 0.05111759 0.04123587
0.043267835 0.037184842 0.03566375 0.009167005 0.07033156 -0.01627375 0.10903902 0.047866996
-0.07821816 -0.07773453 -0.02785947 -0.06967742 -0.0073977727 -0.008781849 -0.013421676 -0.024310032
0.019625068 0.12150333 0.047832213 -0.02948346 -0.04743353 0.005233529 0.07869653 -0.043931622
0.011691207 0.087193914 0.12747632 0.0012228815 0.04984287 -0.02362055 -0.07654192 0.007824322
-0.055215977 0.040311925 0.11270737 0.105097555 -0.0064858114 0.051434696 0.00090891076 0.026450664
-0.005935138 -0.0880233 -0.022417286 -0.06097139 -0.069664076 0.00061831676 0.032071184 0.04419056
0.0038864976 0.0075311433 -0.03415558 -0.019416822 0.013187844 -0.12166163 -0.031197442 0.08182208
0.07545772 0.012162136 0.034069132 0.046717063 0.0061538136 -0.083599396 -0.020132035 0.0784765
0.0094269235 0.040130656 0.051830795 0.019087557 0.0001882384 -0.08463143 -0.07515778 -0.13021702
-0.03607727 0.044968616 0.0348138 -0.002630992 -0.05709919 -0.107087284 -0.035133567 -0.003979247
-0.03507481 -0.041322436 -0.06441743 0.022550646 -0.030137898 -0.040676575 -0.040749893 0.046628043
0.00583257 0.027649874 -0.028514493 -0.052939486 0.012774173 -0.0173086 -0.13667323 -0.14721136
-0.05398988 -0.07608149 -0.077315755 0.02409166 0.064866915 0.025101544 0.030700704 0.055157088
-0.041257583 0.094843626 -0.0673933 -0.0596787 0.080217816 0.08502894 0.025663748 0.015433549
0.005643183 -0.00258705 -0.02145348 -0.10809805 -0.060539085 0.122174755 0.014297297 -0.048947427
0.061281867 0.047940977 -0.04509853 0.08550827 0.01487278 -0.011673472 0.0318455 -0.09206384
-0.0846824 0.021526616 -0.0052529015 0.0430516 0.007359161 -0.016465034 -0.050583206 -0.07526068
0.01807443 -0.039196394 -0.009425379 -0.16589577 -0.13976128 -0.04926281 0.00010250688 -0.07913891
-0.0315447 -0.04577997 -0.04566652 -0.07824233 -0.1578501 -0.19957793 0.01109552 0.028561218
-0.059289437 0.008992069 -0.05542253 -0.0040261876 -0.05985655 -0.012140071 0.05480074 0.0775716
0.1353197 0.0812856 0.009648333 -0.0076059303 0.01176172 0.026505519 -0.05764614 -0.11708338
-0.09862445 -0.13053271 -0.08216636 0.05154312 -0.056930553 -0.08122944 -0.02566961 0.05297513
0.03572633 -0.096130714 0.028087862 0.036167327 -0.028320162 0.017940702 0.04746368 0.028399682
00000000: 5f62 023e 56d6 dc3d 6cd5 4b3c efaa af3d
00000010: d870 3cbc 2278 8bbd e30f 6f3c 3140 8dbd
00000020: a831 9fbd b67b b4bb ae9c d339 d8df 0cbd
00000030: 2a2e 09be 8875 b6bd c841 03be b6ee b93c
00000040: 5470 b93d ce35 8b3d 0a78 713c d086 8b3d
00000050: 50af 883d 266e 253d d1fc 423d 6700 8d3d
00000060: bd82 993d 72ad ec3c 6286 05bd daa6 76bc
00000070: 8305 7ebc 9787 cdbd 5d9f 0fbe a8e8 f9bd
00000080: e68a 5abe e1ab 873d 3884 c63d eb99 983d
00000090: 3061 a1bd 2939 0fbd be47 72bc c79a 25bd
000000a0: 9842 e9bc 9ece a4bc e3e0 d6bc 5c75 293d
000000b0: 2475 b23c 65bc 85bc 46f6 b13b 2d86 603d
000000c0: d8d5 d13c 65df 973b 4aca 4bbd 16bd cfbd
000000d0: 7956 acbc 7c19 d1bd bc46 503b ba67 873d
000000e0: 2970 a1bc 8c12 89bd af1f 9ebc d34c ccbd
000000f0: 3044 ffbd 852d 99bd 3491 18be bd7e 813d
00000100: caba 90bd 4695 a8bd f7a2 693d 1370 463d
00000110: c83f 6b3c c0cd 02bd ae60 513d f2e6 283d
00000120: 9d39 313d 224f 183d 2714 123d 3531 163c
00000130: fe09 903d 8750 85bc da4f df3d 2f10 443d
00000140: d830 a0bd 4833 9fbd 8b39 e4bc 09b3 8ebd
00000150: 0469 f2bb bfe1 0fbc 97e6 5bbc d525 c7bc
00000160: c0c4 a03c bdd6 f83d b6eb 433d 4c87 f1bc
00000170: a949 42bd 067e ab3b a52b a13d a5f1 33bd
00000180: 7a8c 3f3c b992 b23d 2789 023e 1849 a03a
00000190: 0a28 4c3d e27f c1bc 03c2 9cbd 9631 003c
000001a0: 262a 62bd 1e1e 253d 1fd3 e63d 633d d73d
000001b0: ee86 d4bb 30ad 523d f843 6e3a 10af d83c
000001c0: 8c7b c2bb 8f45 b4bd 75a4 b7bc 23bd 79bd
000001d0: 0aac 8ebd 8916 223a 135d 033d 2901 353d
000001e0: 9cb4 7e3b cfc7 f63b b9e6 0bbd 0710 9fbc
000001f0: d411 583c bc29 f9bd c791 ffbc 5692 a73d
00000200: 9489 9a3d b243 473c 138c 0b3d 645a 3f3d
00000210: eea5 c93b 2936 abbd f0eb a4bc 4ab8 a03d
00000220: 6273 1a3c 0b60 243d 874c 543d 825d 9c3c
00000230: dc61 4539 3e53 adbd 52ec 99bd 9c57 05be
00000240: c2c5 13bd 0331 383d ea98 0e3d b96c 2cbb
00000250: d7e0 69bd 9450 dbbd 37e8 0fbd 5864 82bb
00000260: 9baa 0fbd b741 29bd 49ed 83bd 22bc b83c
00000270: c1e3 f6bc 7b9c 26bd 5ce9 26bd 0cfd 3e3d
00000280: 251f bf3b fd81 e23c 3a97 e9bc 13d7 58bd
00000290: c44a 513c c4ca 8dbc 11f4 0bbe 93be 16be
000002a0: 7e24 5dbd 9dd0 9bbd b957 9ebd df5b c53c
000002b0: f2d8 843d c1a1 cd3c 0b80 fb3c 66ec 613d
000002c0: b6fd 28bd 603d c23d 8005 8abd a771 74bd
000002d0: 3d49 a43d a723 ae3d c83c d23c ffdc 7c3c
000002e0: 73ea b83b 7f8b 29bb 35bf afbc 8362 ddbd
000002f0: d5f7 77bd c236 fa3d 363f 6a3c 197d 48bd
00000300: b202 7b3d c25d 443d 3cb9 38bd f61e af3d
00000310: f6ac 733c 1742 3fbc 6d70 023d f78b bcbd
00000320: f76d adbd 9658 b03c 8820 acbb e056 303d
00000330: 1e25 f13b aee1 86bc 5630 4fbd 4522 9abd
00000340: d410 943c 668c 20bd e86c 1abc 95e0 29be
00000350: 951d 0fbe cdc7 49bd f6f8 d638 9513 a2bd
00000360: 0435 01bd c783 3bbd d10c 3bbd 843d a0bd
00000370: 75a3 21be 285e 4cbe fcc9 353c 37f9 e93c
00000380: 7bd9 72bd 7953 133c bc02 63bd 1cee 83bb
00000390: 242c 75bd 26e7 46bc be76 603d dcdd 9e3d
000003a0: 3f91 0a3e 1179 a63d 0b14 1e3c 2b3b f9bb
000003b0: 3bb4 403c 1a22 d93c 5c1e 6cbd 69c9 efbd
000003c0: 9efb c9bd 5eaa 05be d646 a8bd e11e 533d
000003d0: 0330 69bd 9f5b a6bd 1349 d2bc 73fc 583d
000003e0: c655 123d 2ee0 c4bd 8418 e63c 3124 143d
000003f0: afff e7bc 61f8 923c 4769 423d 73a6 e83c

conv2.bias f4 [64]
0.026700046 0.04606986 0.113543 0.006484544 -0.012785996 0.0031827453 0.06375307 -0.03291864
0.017081365 -0.05763217 -0.078790046 0.0028233451 -0.017777678 -0.016323222 0.039566502 0.066016935
0.07675853 -0.062531754 0.058134414 -0.057692993 0.04510313 0.037072502 0.0530856 -0.010284466
-0.011625751 0.046569884 -0.02713062 0.049143173 -0.009566627 0.036212742 0.012466787 -0.009060529
-0.02355635 -0.0032182036 0.0054963003 -0.054581698 -0.0038415706 -0.009191998 0.011496175 -0.03063264
-0.023459345 -0.06970104 0.05293949 -0.076625094 -0.0515221 -0.01695867 0.007724806 0.034441754
0.006993343 0.16731843 0.012574872 -0.037359964 0.08395204 0.0073249047 0.040856406 -0.039380137
0.081209235 0.046890005 0.04632071 -0.060966004 0.025571184 0.026787667 -0.039518826 0.001907617
00000000: 0eba da3c c0b3 3c3d 3b89 e83d 4c7c d43b
00000010: 5b7c 51bc 9b95 503b f890 823d b2d5 06bd
00000020: 38ee 8b3c b60f 6cbd ad5c a1bd df07 393b
00000030: 7ea2 91bc 47b8 85bc 7c10 223d e333 873d
00000040: 9433 9d3d a610 80bd 5a1e 6e3d 7d4f 6cbd
00000050: 0fbe 383d 56d9 173d 4970 593d 2d80 28bc
00000060: ef79 3ebc 10c0 3e3d 0941 debc 5a4a 493d
00000070: 58bd 1cbc d053 143d 7f41 4c3c 9d72 14bc
00000080: 3ff9 c0bc 7fe8 52bb 4f1a b43b 0f91 5fbd
00000090: dcc2 7bbb 099a 16bc 745a 3c3c 4df1 fabc
000000a0: d02d c0bc 6bbf 8ebd 14d7 583d 9eed 9cbd
000000b0: d608 53bd e9ec 8abc 5f20 fd3b cc12 0d3d
000000c0: 6a28 e53b 8655 2b3e d606 4e3c c306 19bd
000000d0: 0cef ab3d c105 f03b 0c59 273d 114d 21bd
000000e0: 0751 a63d bc0f 403d c9ba 3d3d 7db7 79bd
000000f0: a97a d13c cf71 db3c 7ede 21bd 0109 fa3a

conv3.weight f4 [64, 64, 3, 3]
0.0024139455 -0.023918455 0.010895112 0.024511822 0.015999034 -0.018737767 -0.02115483 -0.026844405
0.02689904 -0.0068236454 0.021258626 0.0154396035 -0.01394806 -0.012839671 0.0230031 0.0204861
0.017966932 -0.024369406 -0.034307618 0.046603974 0.0014057537 -0.023912193 -0.0308524 0.03391135
-1.0923252e-05 -0.0044069127 -0.019524934 0.024565805 0.00876154 0.0073241517 -0.015059234 -0.0402351
-0.01609684 -0.03078096 0.02012249 -0.0399346 -0.019286787 -0.029935412 0.018058142 0.0105312
-0.04843637 -0.031022029 -0.014935178 -0.033640508 -0.031050544 -0.034223042 -0.0039847866 0.031194124
0.0040085516 -0.0053963643 -0.040850643 -0.02993406 -0.0034977796 0.016977182 0.017271083 -0.03281925
-0.014873441 -0.036179874 0.028525425 0.03175593 -0.052950174 -0.043960422 -0.008908487 0.015340605
0.005447511 -0.025952699 0.022343 0.0028707373 -0.024501843 -0.0017255358 -0.030143391 -0.011279801
-0.0069360407 0.027716445 0.025922135 0.020521296 -0.009196735 0.029154634 -0.022884615 0.04176545
0.0070603713 0.024927137 0.041123528 0.029222675 -0.01935361 0.035169587 0.031147512 -0.023639679
-0.005535195 -0.00814102 -0.013944795 -0.02882062 0.020304391 0.015637694 0.00638235 -0.013122215
-0.0016687358 0.020257767 0.042400334 -0.0147283375 -0.027103227 -0.038765393 0.012641046 0.017178437
0.022814857 -0.015170375 0.03179689 -0.026073448 0.0036469542 -0.03165377 -0.019003756 -0.015746526
-0.033682175 -0.022737987 -0.029340018 0.0081744315 -0.038909264 0.027486574 0.009828843 0.016274374
-0.040956058 0.0059856563 -0.04285223 -0.009557949 -0.015234365 -0.012813669 -0.028020697 0.03091942
0.017315857 -0.021804916 0.035875008 -0.012524753 0.00021221073 0.028520914 -0.000116445095 -0.023165569
-0.008226668 -0.049179655 0.010892138 -0.017872104 0.017577033 -0.053798627 -0.030576015 -0.008968845
0.03207881 0.00597021 -0.025073001 -0.01750642 0.014194865 -0.040892966 0.012702941 0.0093258675
-0.040785234 -0.041604124 -0.036944907 -0.02293441 2.0025655e-05 -0.014377341 -0.02001698 0.043782864
-0.013439604 -0.024718411 0.02742854 -0.023183458 -0.04154348 0.02227411 -0.023688588 -0.00496317
0.033463895 0.04409596 -0.040065173 -0.024817528 -0.0083991755 0.035043437 0.031712182 0.018039534
-0.02157447 -0.032486722 0.026749909 -0.0101869535 0.0041443245 -0.047013775 -0.008441032 -0.0029986496
0.027283346 0.017621296 0.008079388 0.023020634 -0.063494906 -0.03292036 -0.013921037 -0.0182075
0.021895815 -0.032318544 0.0029952403 0.023426214 -0.015145052 0.014480107 -0.00025274188 -0.0070455973
0.028385658 -0.009353541 0.031141391 -0.03914083 -0.03679194 -0.038792573 -0.03137025 0.031466212
-0.042222347 -0.03652432 -0.036957517 -0.005083064 -0.015764223 -0.0069352244 -0.004800696 0.0089181345
-0.03355633 -0.05104635 0.0024716659 -0.03249594 -0.039172906 -0.005133333 -0.07038081 0.0049281176
0.006465189 -0.026488349 0.023428408 -0.049206883 -0.014872678 0.035002995 0.043065697 -0.0026491664
-0.009408385 -0.053263742 -0.00056631985 -0.017939975 0.021913087 0.026670756 -0.0012977408 0.027114287
-0.02288359 -0.033832226 -0.04434846 -0.018357754 0.031289045 0.03446696 -0.04494356 -0.021390991
-0.00782472 0.02332347 0.028574755 0.0052432143 -0.025433524 2.8148734e-06 -0.027080296 -0.02819054
00000000: 4933 1e3b a3f0 c3bc 6981 323c 04cd c83c
00000010: 6810 833c f27f 99bc e54c adbc cce8 dbbc
00000020: 605b dc3c e398 dfbb 9226 ae3c 64f6 7c3c
00000030: 6786 64bc 7c5d 52bc ff70 bc3c 77d2 a73c
00000040: 632f 933c 59a2 c7bc 2586 0cbd cfe3 3e3d
00000050: 4441 b83a 81e3 c3bc 2cbe fcbc a1e6 0a3d
00000060: 0343 37b7 dd67 90bb c1f2 9fbc 3a3e c93c
00000070: 908c 0f3c 70ff ef3b 01bb 76bc 8fcd 24bd
00000080: 85dd 83bc 5a28 fcbc ecd7 a43c 7792 23bd
00000090: 53ff 9dbc 1c3b f5bc abee 933c 0e8b 2c3c
000000a0: 3765 46bd e921 febc adb2 74bc a1ca 09bd
000000b0: b65d febc 762d 0cbd d092 82bb d28a ff3c
000000c0: 2b5a 833b fcd3 b0bb 0153 27bd 4638 f5bc
000000d0: 013b 65bb bb13 8b3c 167c 8d3c 7a6d 06bd
000000e0: bcaf 73bc 5931 14bd 27ae e93c 8212 023d
000000f0: 48e2 58bd d80f 34bd e7f4 11bc 2957 7b3c
00000100: 0981 b23b c19a d4bc ab08 b73c fb22 3c3b
00000110: 17b8 c8bc 602b e2ba 46ef f6bc eace 38bc
00000120: ba47 e3bb 990d e33c a85a d43c 471c a83c
00000130: e7ad 16bc b3d5 ee3c 8478 bbbc 4012 2b3d
00000140: b05a e73b ff33 cc3c 2571 283d 6464 ef3c
00000150: 768b 9ebc fc0d 103d 1129 ff3c 00a8 c1bc
00000160: 9560 b5bb ea61 05bc b678 64bc 3919 ecbc
00000170: 6555 a63c 9f1a 803c 0823 d13b 8ffe 56bc
00000180: 7bb9 daba 9ef3 a53c f9ab 2d3d 204f 71bc
00000190: 9607 debc 76c8 1ebd 641c 4f3c cbb9 8c3c
000001a0: 39e6 ba3c 2a8d 78bc 753d 023d fc97 d5bc
000001b0: bd01 6f3b 62a7 01bd c4ad 9bbc dcfe 80bc
000001c0: 52f6 09bd 0445 babc 7a5a f0bc 0dee 053c
000001d0: 525f 1fbd 862b e13c 2809 213c d651 853c
000001e0: 8ac1 27bd 5323 c43b d285 2fbd f298 1cbc
000001f0: 8f99 79bc 6cf0 51bc a98b e5bc b94a fd3c
00000200: fcd9 8d3c 39a0 b2bc acf1 123d 9f34 4dbc
00000210: e284 5e39 b1a4 e93c fc33 f4b8 b8c5 bdbc
00000220: 26c9 06bc 9b70 49bd f074 323c 8568 92bc
00000230: b6fd 8f3c f35b 5cbd 8d7a fabc 10f2 12bc
00000240: 1265 033d c0a1 c33b e565 cdbc a069 8fbc
00000250: 9491 683c 627f 27bd ff1f 503c 86cb 183c
00000260: 6b0e 27bd 1669 2abd 8b53 17bd f2e0 bbbc
00000270: c4fc a737 f08e 6bbc a6fa a3bc a955 333d
00000280: c931 5cbc 447e cabc d1b1 e03c 3ceb bdbc
00000290: 7f29 2abd 3278 b63c 920e c2bc 16a2 a2bb
000002a0: 7011 093d f79d 343d 611b 24bd 214e cbbc
000002b0: b29c 09bc b589 0f3d a2e4 013d a5c7 933c
000002c0: f1bc b0bc cc10 05bd a022 db3c 2ee7 26bc
000002d0: 1dcd 873b 8491 40bd 414c 0abc fe84 44bb
000002e0: 5381 df3c 895a 903c 695f 043c c595 bc3c
000002f0: 9e09 82bd 80d7 06bd 1015 64bc e527 95bc
00000300: da5e b33c 7360 04bd cb4b 443b 55e8 bf3c
00000310: f422 78bc f93d 6d3c 7182 84b9 c1de e6bb
00000320: 0a89 e83c 983f 19bc 3b1c ff3c 2352 20bd
00000330: 25b3 16bd f6e4 1ebd 177e 00bd b7e2 003d
00000340: 57f1 2cbd 869a 15bd c460 17bd d58f a6bb
00000350: f923 81bc e140 e3bb 284f 9dbb 5e1d 123c
00000360: 5d72 09bd fa15 51bd acfb 213b 761a 05bd
00000370: c573 20bd 8535 a8bb d023 90bd 0c7c a13b
00000380: f0d9 d33b 18fe d8bc efec bf3c 288d 49bd
00000390: 88ac 73bc 4d5f 0f3d a865 303d a39d 2dbb
000003a0: a025 1abc 152b 5abd 1575 14ba dbf6 92bc
000003b0: 1383 b33c a17c da3c f518 aaba c81e de3c
000003c0: 5e76 bbbc a993 0abd bba6 35bd 0063 96bc
000003d0: f128 003d 3a2d 0d3d bd16 38bd 293c afbc
000003e0: 4133 00bc dd10 bf3c 9b15 ea3c 45cf ab3b
000003f0: f759 d0bc 28e7 3c36 7fd7 ddbc d9ef e6bc

conv3.bias f4 [64]
-0.018506588 -0.012973608 -0.020881018 0.069740035 -0.008855705 -0.016412672 -0.036492776 0.012488227
-0.02468995 0.05232746 -0.033096384 -0.043921717 -0.020818386 -0.014778227 0.021551462 0.043486234
-0.00918309 -0.041851602 -0.00037024438 -0.04621681 -0.013664457 0.0145407505 0.013681603 -0.035827007
0.022913625 0.02539963 -0.013335444 -0.0015357526 0.024630185 -0.019493625 -0.048731655 -0.025823528
-0.033729624 0.016176844 0.005951159 -0.057670306 -0.06300438 -0.012085248 0.04450813 -0.010634219
-0.029208647 -0.015316485 -0.06453148 -0.09006501 -0.010860673 -0.056261305 0.038602035 -0.012819722
-0.004064827 0.0234047 -0.022789957 -0.0023713543 0.0035125744 -0.015290099 0.022409515 -0.0051623657
-0.028138585 -0.05903614 -0.059367508 -0.050540276 -0.04759286 -0.0038374185 0.0728143 -0.063186884
00000000: 219b 97bc 428f 54bc ab0e abbc ddd3 8e3d
00000010: 8517 11bc de73 86bc 7379 15bd 6c9b 4c3c
00000020: 9442 cabc 5255 563d 1390 07bd 42e7 33bd
00000030: 528b aabc 6020 72bc b18c b03c 9f1e 323d
00000040: ac74 16bc 966c 2bbd 5c1d c2b9 d64d 3dbd
00000050: e3e0 5fbc 543c 6e3c cd28 603c 57bf 12bd
00000060: 5bb5 bb3c e312 d03c e87c 5abc 4e4b c9ba
00000070: 3ec5 c93c 18b1 9fbc d89a 47bd dd8b d3bc
00000080: 1328 0abd 4d85 843c f101 c33b b337 6cbd
00000090: 7108 81bd 3401 46bc 284e 363d 263b 2ebc
000000a0: f946 efbc fff1 7abc 1529 84bd 0174 b8bd
000000b0: f7f0 31bc 4172 66bd 2b1d 1e3d d009 52bc
000000c0: 3e32 85bb 37bb bf3c 01b2 babc b968 1bbb
000000d0: 3833 663b 5383 7abc 2994 b73c 1029 a9bb
000000e0: e482 e6bc e1cf 71bd 582b 73bd 5203 4fbd
000000f0: bbf0 42bd 337d 7bbb aa1f 953d 2068 81bd

fc1.weight f4 [128, 640]
0.045649745 -0.06581153 -0.08663114 -0.054531366 -0.049863856 0.034058716 -0.025020445 -0.012437104
0.01566989 0.077416345 -0.0037313418 0.0034662986 -0.022504063 -0.05539819 -0.025738103 0.010312022
-0.009847708 0.0830331 0.069513865 0.053545855 0.00044079055 0.057913024 0.008496904 -0.06927949
-0.03897066 0.07260747 0.0041574268 -0.0068014697 -0.025468202 0.0132601615 0.013300456 0.038853202
-0.020233454 0.029269814 -0.007643476 -0.123911045 -0.08567146 -0.035844795 -0.06693797 -0.05545723
0.02101817 0.063951716 0.024497546 -0.0031699508 0.059837807 0.009469242 -0.020977562 0.04425017
0.08122964 0.09042191 0.005171636 0.0097037805 0.019239258 0.05518884 -0.021485068 0.050546452
-0.00632108 -0.06408803 0.0233626 -0.007912493 -0.023839816 -0.029984808 0.0033572807 0.028719556
-0.0070512956 0.007767317 0.0033542542 0.011611521 -0.05487918 0.00872327 0.056511197 0.0669679
-0.016952394 0.06264122 0.032252897 0.0021955778 -0.002048288 -0.0016808078 -0.07501537 -0.032252606
-0.07193342 -0.0824158 -0.034826465 -0.044726744 -0.05371624 -0.07849949 -0.06762223 -0.016013486
-0.13154815 -0.13705648 0.038979206 0.032411277 0.029588662 -0.04447398 -0.0039189397 0.027436594
0.029571993 -0.0010132227 0.0327623 0.021007672 -0.038200665 -0.036683094 0.036699798 0.035918303
0.038321316 0.0049066483 0.010993555 -0.0039327694 0.03867234 -0.047093734 -0.010504925 0.040340643
0.052111924 0.025642404 -0.020855183 -0.033054426 0.0027426912 0.01615016 0.025163494 -0.020850882
-0.0081611695 0.0056742355 -0.02763867 0.018161854 0.06917401 0.023603776 -0.0009050653 0.029381147
0.05751326 -0.009347049 0.0830101 0.06588393 -0.016247207 0.05643709 0.041526925 0.09377943
0.107523434 0.09884046 0.11169972 0.07515672 -0.056959294 0.016171815 -0.034774695 -0.044049706
0.10877546 0.009725309 0.062768236 0.02151703 -0.012910708 0.026840102 -0.04886769 -0.06895726
-0.017386092 -0.01155255 -0.012681342 -0.0236862 -0.043143224 -0.06207215 -0.08494363 -0.013971486
-0.059935138 -0.020853499 -0.07227805 -0.06789884 0.03271565 0.016931118 0.000818924 0.03381812
-0.044809032 -0.00031445996 -0.04635015 0.007392104 -0.0059129647 0.008894712 -0.014153245 0.04744393
-0.00090015907 -0.024439702 -0.020186212 0.002343512 -0.029068379 -0.003321253 -0.028498635 -0.030796224
0.01215274 0.0347954 0.046228833 0.025518466 0.036765955 0.056333385 -0.06984109 0.00454531
-0.019558217 -0.009651075 -0.033742875 -0.01705333 -0.021141712 0.0033314424 -0.026429374 0.014562993
-0.09110939 -0.105760515 -0.06727473 -0.032318596 -0.032559253 0.034846473 0.012482835 0.052207742
0.04136017 -0.031216329 0.021639187 0.033807963 0.008895957 -0.01362555 0.020754164 0.016098281
-0.018783644 -0.029821971 -0.0024437227 -0.034106392 -0.06440106 -0.05465616 0.036773954 0.0077894963
-0.036303215 -0.0087205665 0.0031475693 0.0042193932 -0.0082265325 -0.013056454 -0.053433042 0.0010480394
-0.027413297 -0.042343132 -0.0057254746 -0.04830656 0.0017042471 -0.0071621104 0.037965912 -0.020206133
-0.047019754 -0.018419519 -0.0010797848 -0.03858589 0.07292514 0.005132212 0.04078685 -0.003362805
0.0899752 0.07043656 0.07806847 -0.061985366 0.06007516 -0.01381714 0.0065848324 0.0064245914
00000000: 3afb 3a3d 32c8 86bd ab6b b1bd 485c 5fbd
00000010: 0b3e 4cbd 2781 0b3d adf7 ccbc ffc4 4bbc
00000020: 245e 803c 768c 9e3d 8789 74bb d72a 633b
00000030: 715a b8bc 36e9 62bd b7d8 d2bc c1f3 283c
00000040: 4858 21bc 420d aa3d 495d 8e3d e652 5b3d
00000050: e819 e739 3536 6d3d 9936 0b3c 68e2 8dbd
00000060: b39f 1fbd 3ab3 943d 063b 883b ddde debb
00000070: b1a2 d0bc 2641 593c 28ea 593c 8924 1f3d
00000080: a1c0 a5bc 40c7 ef3c 2076 fabb 13c5 fdbd
00000090: 8574 afbd fed1 12bd c616 89bd 1f27 63bd
000000a0: 4c2e ac3c 1ef9 823d 14af c83c f3be 4fbb
000000b0: 7d18 753d e124 1b3c 23d9 abbc ab3f 353d
000000c0: ba5b a63d 1f2f b93d d476 a93b 9bfc 1e3c
000000d0: a69b 9d3c b10d 623d 7401 b0bc cc09 4f3d
000000e0: 1021 cfbb 9640 83bd ec62 bf3c 67a3 01bc
000000f0: b84b c3bc b3a2 f5bc d305 5c3b 4645 eb3c
00000100: 8e0e e7bb fa84 fe3b 0cd3 5b3b 403e 3e3c
00000110: fec8 60bd 0cec 0e3c 4978 673d 7726 893d
00000120: bfdf 8abc 0a4a 803d 9d1b 043d afe3 0f3b
00000130: 923c 06bb 8d4e dcba a9a1 99bd 4f1b 04bd
00000140: d451 93bd 9dc9 a8bd 32a6 0ebd 6433 37bd
00000150: 8f05 5cbd 57c4 a0bd 867d 8abd b72e 83bc
00000160: 8fb4 06be 8958 0cbe a9a8 1f3d b0c1 043d
00000170: ec63 f23c 592a 36bd 736a 80bb b5c2 e03c
00000180: f740 f23c 1dce 84ba c331 063d 4818 ac3c
00000190: 4d78 1cbd 0341 16bd 8752 163d 121f 133d
000001a0: d0f6 1c3d f3c7 a03b 501e 343c 76de 80bb
000001b0: e366 1e3d 5ce5 40bd d91c 2cbc 3b3c 253d
000001c0: 5073 553d 0510 d23c 7dd8 aabc 1464 07bd
000001d0: b9be 333b 574d 843c ac23 ce3c 78cf aabc
000001e0: 6db6 05bc f0ee b93b 7e6a e2bc 2bc8 943c
000001f0: 1aab 8d3d b55c c13c e741 6dba bbb0 f03c
00000200: 0693 6b3d 5d24 19bc 3301 aa3d 27ee 863d
00000210: dd18 85bc 942a 673d 2318 2a3d 6e0f c03d
00000220: 3f35 dc3d de6c ca3d d3c2 e43d c4eb 993d
00000230: 264e 69bd c17a 843c e96f 0ebd 776d 34bd
00000240: abc5 de3d e756 1f3c a28c 803d 7c44 b03c
00000250: 6f87 53bc c6df db3c 7d29 48bd 7739 8dbd
00000260: 476d 8ebc e846 3dbc 67c5 4fbc 9009 c2bc
00000270: f3b6 30bd 5e3f 7ebd edf6 adbd a9e8 64bc
00000280: 8c7e 75bd f5d4 aabc 8406 94bd 8c0e 8bbd
00000290: d800 063d 21b3 8a3c 0fad 563a de84 0a3d
000002a0: ad89 37bd 1ade a4b9 a8d9 3dbd 7639 f23b
000002b0: 8bc1 c1bb 20bb 113c 03e3 67bc 9154 423d
000002c0: a7f8 6bba c535 c8bc 8e5d a5bc 9b95 193b
000002d0: cf20 eebc 61a9 59bb f875 e9bc 5d48 fcbc
000002e0: 491c 473c 9f85 0e3d 725a 3d3d 1a0c d13c
000002f0: e697 163d d6bd 663d d808 8fbd d3f0 943b
00000300: 8e38 a0bc 8b1f 1ebc f835 0abd 6db3 8bbc
00000310: 6231 adbc 5454 5a3b 6a82 d8bc 9f99 6e3c
00000320: 8f97 babd f898 d8bd 55c7 89bd 8160 04bd
00000330: da5c 05bd 2dbb 0e3d ce84 4c3c c9d7 553d
00000340: 4869 293d 63b9 ffbc aa44 b13c 387a 0a3d
00000350: 59c0 113c b33d 5fbc a304 aa3c 8be0 833c
00000360: 28e0 99bc 354d f4bc dd26 20bb 25b3 0bbd
00000370: b4e4 83bd 23df 5fbd 49a0 163d 083f ff3b
00000380: aeb2 14bd b5e0 0ebc 7347 4e3b d642 8a3b
00000390: 94c8 06bc bdea 55bc 9bdc 5abd 5e5e 893a
000003a0: da91 e0bc fe6f 2dbd c39c bbbb 19dd 45bd
000003b0: 0b61 df3a 23b0 eabb 2582 1b3d 5587 a5bc
000003c0: c997 40bd 88e4 96bc 9187 8dba 3d0c 1ebd
000003d0: c759 953d 1d2c a83b 1d10 273d 8162 5cbb
000003e0: eb44 b83d 0b41 903d 5de2 9f3d 5ee4 7dbd
000003f0: 5f11 763d 4961 62bc 94c5 d73b 6185 d23b

fc1.bias f4 [128]
0.18176939 -0.066140644 0.13761424 0.057079524 -0.026066866 -0.044156887 0.08311567 0.37829596
-0.040673323 0.040809803 -0.17830764 -0.040743474 0.030643012 0.02793279 0.15482995 0.27015656
-0.015549349 0.011128398 0.18726368 -0.07670869 0.32710952 -0.012398631 0.014820662 0.3022635
-0.11267161 0.009098565 -0.063329026 -0.062338326 -0.06022815 -0.08609423 -0.02758284 0.0023169725
-0.0094225975 0.31948245 -0.040655553 -0.061367188 0.12900838 -0.0693576 -0.011060508 -0.0052922606
0.2713385 -0.06327751 0.28636673 -0.017730035 -0.059837595 -0.054445956 0.03804405 -0.04581496
-0.08726005 0.065510415 -0.008350634 -0.070425384 -0.015475143 -0.055080086 -0.0256834 -0.09142763
0.20409156 -0.11010328 0.1700701 0.051755 0.04072713 -0.014329682 -0.030895958 0.25931317
0.09926614 0.13091238 0.31896693 -0.054872487 0.1312382 0.23900095 0.16389999 -0.05446105
-0.07846923 0.14058155 -0.08486639 -0.059845846 -0.113931224 -0.040403564 0.091402814 -0.106935464
-0.05596031 0.01932568 -0.040178906 0.10798394 -0.03279633 0.054418124 -0.030060276 -0.022464143
-0.037505273 -0.014488865 -0.007788641 0.010788853 0.011226482 -0.0369238 -0.04121675 -0.051081225
-0.08236622 -0.047587804 0.31519416 -0.08291328 0.028059563 -0.0055692554 -0.041742448 -0.02257454
0.38704646 0.21956356 -0.08800363 0.079599805 -0.06576603 -0.08815892 -0.12903473 -0.049353324
-0.1105626 -0.0015229195 0.13831387 0.19381386 -0.10908353 0.081916854 -0.00019910952 0.020246906
0.31961763 -0.01304204 -0.043456838 0.053765867 -0.07378316 -0.06380752 -0.051340602 0.063112274
00000000: c121 3a3e bf74 87bd bfea 0c3e 38cc 693d
00000010: 2e8a d5bc dadd 34bd 8c38 aa3d 02b0 c13e
00000020: 1299 26bd 2e28 273d 4796 36be a1e2 26bd
00000030: 0e07 fb3c 4ed3 e43c be8b 1e3e f651 8a3e
00000040: b2c2 7ebc e253 363c 0dc2 3f3e 7219 9dbd
00000050: e67a a73e a123 4bbc 5dd2 723c 48c2 9a3e
00000060: 60c0 e6bd 2612 153c a6b2 81bd 7956 7fbd
00000070: cbb1 76bd 2c52 b0bd 68f5 e1bc 59d8 173b
00000080: 3d61 1abc 3493 a33e 7086 26bd 295c 7bbd
00000090: c61a 043e 5b0b 8ebd 2237 35bc b36a adbb
000000a0: e1ec 8a3e a497 81bd a99e 923e 943e 91bc
000000b0: 4418 75bd b902 5fbd 14d4 1b3d 78a8 3bbd
000000c0: 66b5 b2bd 532a 863d 19d1 08bc 2f3b 90bd
000000d0: 748b 7dbc a89b 61bd fe65 d2bc 693e bbbd
000000e0: 61fd 503e d47d e1bd db26 2e3e 0dfd 533d
000000f0: 7ed1 263d 0bc7 6abc 8519 fdbc b2c4 843e
00000100: 0c4c cb3d e50d 063e a24f a33e f9c1 60bd
00000110: 4f63 063e aabc 743e 66d5 273e 8d12 5fbd
00000120: 7ab4 a0bd 9cf4 0f3e 6ece adbd eb20 75bd
00000130: c654 e9bd 357e 25bd 6631 bb3d fb00 dbbd
00000140: a336 65bd e350 9e3c a392 24bd af26 dd3d
00000150: 7255 06bd 8ae5 5e3d f840 f6bc b906 b8bc
00000160: 219f 19bd b462 6dbc db37 ffbb bbc3 303c
00000170: 47ef 373c 693d 17bd e5d2 28bd 8c3a 51bd
00000180: 9faf a8bd 6eeb 42bd 2161 a13e 70ce a9bd
00000190: 2bdd e53c 4d7e b6bb 21fa 2abd 3eee b8bc
000001a0: f42a c63e 45d5 603e 3f3b b4bd 3905 a33d
000001b0: 57b0 86bd aa8c b4bd ae21 04be b626 4abd
000001c0: a56e e2bd b39c c7ba 27a2 0d3e 2477 463e
000001d0: 3067 dfbd 06c4 a73d 0ec8 50b9 d7dc a53c
000001e0: eca4 a33e 48ae 55bc ccff 31bd 9939 5c3d
000001f0: a01b 97bd 84ad 82bd 864a 52bd 0241 813d

fc2.weight f4 [10, 128]
-0.13081132 -0.049608607 -0.22908987 0.056402504 0.060933076 -0.071319565 -0.06721044 -0.11238321
0.03417852 0.016599718 0.024941117 -0.1312604 -0.05639594 0.039578985 0.04874356 -0.028260538
-0.0077083237 0.079417065 0.041113608 0.043890327 -0.12092871 0.05723539 0.030091796 -0.12996632
0.087592326 -0.09621559 0.06091645 -0.1372594 0.04782978 0.084107615 0.069870405 -0.089799345
-0.09486689 -0.00560535 -0.122382954 0.0012873027 0.082602754 0.04801606 -0.0113491025 0.012490835
0.0015113465 0.09445705 -0.06344801 -0.08607119 0.06153389 -0.0530543 0.08373256 0.05022559
-0.06992911 0.019100528 -0.053112645 0.15737228 -0.03004514 0.085002355 0.034343217 -0.05057133
0.03751613 0.10184881 0.05080262 0.08932819 -0.031839218 -0.17731395 -0.08093951 0.03108181
-0.031563606 -0.092602976 0.009459278 -0.021674616 -0.09448572 -0.11516949 0.05535679 0.026835935
-0.047702476 -0.053374857 0.09348836 0.0904903 0.09774027 -0.10051679 -0.070119984 0.081283785
0.05688815 -0.10931315 -0.036922753 0.06118604 -0.049455192 0.0674819 0.002017071 -0.030894533
-0.033583153 0.09679027 -0.090662345 -0.075718164 -0.011062815 -0.03503483 0.09023205 0.048866343
0.0841108 0.021991108 -0.0021706217 0.07886031 0.14850518 -0.1373387 -0.1325595 -0.20069921
-0.18564688 -0.04122591 -0.11512579 -0.09830211 -0.025504088 0.06442426 0.0840517 -0.01842715
0.0009222101 -0.108666405 -0.025377218 -0.06256441 -0.103710674 -0.0373142 -0.08032451 -0.034065463
0.033409715 0.061510593 0.058047093 0.081970185 -0.023317669 0.050714783 0.07745594 0.071806215
0.034497473 0.00065521285 0.032521013 -0.23262513 -0.12532641 0.002025864 -0.07284098 0.11857962
0.08227158 -0.063202225 -0.018137315 0.10431098 0.06495428 -0.0503227 0.053649213 -0.0023042837
0.051216815 -0.024392284 0.028739342 -0.02906373 0.07499912 -0.13590401 -0.044544406 0.07734934
-0.051049884 0.08802718 0.0762375 0.053905047 -0.023119824 0.021765176 -0.12371608 -0.028189464
0.06608542 0.12372267 -0.109711476 -0.116533875 -0.08486434 -0.07413842 -0.012088638 0.04574565
0.09133099 0.04040369 0.12721828 -0.07636857 0.03046167 0.012622162 -0.030837111 0.028278822
0.044626903 -0.117266625 -0.14614078 0.003811843 -0.10433829 -0.13300183 -0.060847983 0.04057224
-0.028074455 0.03453906 0.04985301 0.061176036 -0.0054117166 0.044423375 0.04384016 0.12157324
0.025616767 0.09517605 0.106603034 -0.11797891 0.051821087 0.18822612 0.06370927 -0.095820874
-0.18380597 0.035898175 -0.11316565 -0.04242615 -0.00829264 0.052487474 0.07258593 -0.026330004
0.076634996 -0.014501232 -0.0029727432 -0.12757018 -0.03772916 -0.15705803 -0.22260158 -0.02510382
-0.041089896 -0.082684346 -0.07765284 -0.21429649 -0.097551815 0.048091818 -0.11138408 0.0626066
-0.17219158 -0.18889062 0.10081246 -0.0036338246 0.044903293 -0.13563141 -0.15260123 -0.0693109
0.14780216 0.06836557 0.09196682 0.055054728 -0.025503954 -0.1072939 -0.04311954 0.062257577
-0.049268924 -0.082455434 -0.10123231 0.08436746 0.08298397 -0.006130144 -0.021202095 -0.1011651
0.055965923 -0.0685813 -0.042364754 -0.023322813 0.07973219 0.06437439 0.06640516 0.08555443
00000000: 67f3 05be 6532 4bbd 8996 6abe 5006 673d
00000010: f694 793d fe0f 92bd a1a5 89bd 2b29 e6bd
00000020: c7fe 0b3d 22fc 873c 5051 cc3c 2069 06be
00000030: 6eff 66bd 931d 223d 54a7 473d a582 e7bc
00000040: 1b96 fcbb 6aa5 a23d be66 283d 58c6 333d
00000050: 79a9 f7bd a86f 6a3d 1283 f63c e415 05be
00000060: 9b63 b33d ae0c c5bd 8783 793d ba8d 0cbe
00000070: 29e9 433d 9d40 ac3d 3718 8f3d b8e8 b7bd
00000080: 9249 c2bd 15ad b7bb eaa3 fabd b6ba a83a
00000090: a22b a93d 7dac 443d 96f1 39bc 5ca6 4c3c
000000a0: 6018 c63a b372 c13d 08f1 81bd 1846 b0bd
000000b0: f60a 7c3d 774f 59bd fa7b ab3d 59b9 4d3d
000000c0: fe36 8fbd b678 9c3c a58c 59bd 3326 213e
000000d0: 3a21 f6bc b715 ae3d 79ab 0c3d e223 4fbd
000000e0: 83aa 193d 1c96 d03d 6816 503d b3f1 b63d
000000f0: d769 02bd ca91 35be 9dc3 a5bd 489f fe3c
00000100: d748 01bd a1a6 bdbd 16fb 1a3c f78e b1bc
00000110: bb81 c1bd fbdd ebbd cdbd 623d 09d7 db3c
00000120: ac63 43bd 989f 5abd d376 bf3d fa52 b93d
00000130: 0d2c c83d bfdb cdbd 119b 8fbd 1d78 a63d
00000140: 8c03 693d 93df dfbd 503c 17bd 379e 7a3d
00000150: 8791 4abd f333 8a3d d630 043b 8816 fdbc
00000160: 7d8e 09bd fa39 c63d 2ead b9bd 2012 9bbd
00000170: cf40 35bc af80 0fbd 95cb b83d 1328 483d
00000180: 4842 ac3d b226 b43c fd40 0ebb 8481 a13d
00000190: be11 183e 84a2 0cbe adbd 07be 1884 4dbe
000001a0: 371a 3ebe 80dc 28bd 12c7 ebbd 9e52 c9bd
000001b0: f3ed d0bc def0 833d 4c23 ac3d 89f4 96bc
000001c0: 79c0 713a 7e8c debd e2e3 cfbc c521 80bd
000001d0: 4366 d4bd c6d6 18bd 2d81 a4bd 3a88 0bbd
000001e0: a0d8 083d 88f2 7b3d cac2 6d3d fcdf a73d
000001f0: b204 bfbc 4eba 4f3d 38a1 9e3d 230f 933d
00000200: 394d 0d3d 97c2 2b3a c134 053d 4835 6ebe
00000210: 9155 00be 5cc4 043b a72d 95bd dfd9 f23d
00000220: 017e a83d 2b70 81bd b594 94bc ffa0 d53d
00000230: c006 853d 2d1f 4ebd 47bf 5b3d 7703 17bb
00000240: b9c8 513d 54d2 c7bc c56e eb3c 0f17 eebc
00000250: 2399 993d 6c2a 0bbe 3274 36bd 5569 9e3d
00000260: af19 51bd 9847 b43d 6822 9c3d 8acb 5c3d
00000270: c965 bdbc e24c b23c db5e fdbd 97ed e6bc
00000280: cb57 873d 5062 fd3d 69b0 e0bd 50a9 eebd
00000290: 5bcd adbd e2d5 97bd 6c0f 46bc ca5f 3b3d
000002a0: be0b bb3d 577e 253d 8245 023e 2067 9cbd
000002b0: c18a f93c 2fcd 4e3c 1c9e fcbc fda8 e73c
000002c0: b3ca 363d 7c29 f0bd eea5 15be 1dd0 793b
000002d0: 50af d5bd a231 08be bc3b 79bd 142f 263d
000002e0: 66fc e5bc d478 0d3d ab32 4c3d b993 7a3d
000002f0: c554 b1bb 49f5 353d bd91 333d 64fb f83d
00000300: 41da d13c a9eb c23d b152 da3d ed9e f1bd
00000310: 5942 543d 59be 403e 017a 823d bc3d c4bd
00000320: a237 3cbe f709 133d 64c3 e7bd 0bc7 2dbd
00000330: dadd 07bc 1bfd 563d efa7 943d 05b2 d7bc
00000340: cff2 9c3d 9396 6dbc 5bd2 42bb c2a1 02be
00000350: e489 1abd d2d3 20be abf1 63be 87a6 cdbc
00000360: e14d 28bd 6956 a9bd 7408 9fbd 8a70 5bbe
00000370: 3fc9 c7bd edfb 443d 561d e4bd e437 803d
00000380: fd52 30be 8b6c 41be c376 ce3d 7625 6ebb
00000390: 84ec 373d f6e2 0abe 7f43 1cbe e0f2 8dbd
000003a0: 7359 173e 3f03 8c3d 1a59 bc3d 1181 613d
000003b0: abed d0bc e7bc dbbd 1d9e 30bd cd01 7f3d
000003c0: 36ce 49bd 65de a8bd e352 cfbd d9c8 ac3d
000003d0: 80f3 a93d 60df c8bb 04b0 adbc a62f cfbd
000003e0: 863c 653d 5a74 8cbd aa86 2dbd 7c0f bfbc
000003f0: a14a a33d b8d6 833d 6eff 873d 2937 af3d

fc2.bias f4 [10]
-0.27157477 0.09738195 0.13206999 -0.13149436 0.1479008 0.12344224 0.027485138 0.24375421
-0.24998593 0.0670928
00000000: d90b 8bbe 3070 c73d 5b3d 073e 75a6 06be
00000010: 4f73 173e 49cf fc3d 8328 e13c b49a 793e
00000020: 50fc 7fbe f367 893d
