lightweight_digit_model.pth (torch, 561157 bytes, 10 tensors)

conv1.weight f4 [32, 1, 3, 3]
0	0xbe0be136	-0.1366013
1	0x3d4f31e2	0.05058468
2	0x3d66a27f	0.056307312
3	0x3e66bf5d	0.22533937
4	0x3ea47532	0.32120663
5	0x3b6f3bf4	0.003650424
6	0x3e97092a	0.2949918
7	0xbe9550d1	-0.2916322
8	0xbe852912	-0.26007897
9	0x3dbad887	0.091233306
10	0x3e4cdf1b	0.20006983
11	0x3c0ec139	0.00871306
12	0x3e1749e8	0.14774287
13	0xbe929cab	-0.28635153
14	0x3df667b7	0.12031501
15	0xbd38c617	-0.04511079
16	0x3e8370ef	0.256721
17	0x3ea294d2	0.31754166
18	0x3de63e36	0.112423345
19	0xbd107d0d	-0.035275508
20	0xbeabf8b9	-0.33588198
21	0x3e7d1ed5	0.24718793
22	0xbe76c262	-0.24097589
23	0xbe103cc6	-0.14085683
24	0x3e8cf3cb	0.2752975
25	0xbcb8382b	-0.02248772
26	0x3d82fe91	0.06396211
27	0x3e746ca6	0.23869571
28	0x3d454022	0.048156865
29	0xbe987056	-0.29773206
30	0xbdcb0cd1	-0.09914554
31	0xbe3b2c0b	-0.1827852
32	0xbe5fa99a	-0.21842042
33	0xbdecb7a1	-0.11558462
34	0xbde8736e	-0.113501415
35	0x3e7dd4e5	0.24788244
36	0xbe09e213	-0.13465147
37	0xbe9504f3	-0.29105338
38	0xbe87e9dc	-0.26545608
39	0xbded3f2a	-0.11584313
40	0xbe86034b	-0.26174387
41	0xbe74ca4d	-0.23905297
42	0xbe583003	-0.21112065
43	0xbc8cfe39	-0.017211067
44	0xbdc81bcc	-0.09770927
45	0x3e8b9e80	0.27269363
46	0xbe95feee	-0.29296058
47	0x3ea42e8e	0.32066768
48	0x3df5cdde	0.12002157
49	0xbe7e7c28	-0.2485205
50	0x3d0343f1	0.032047216
51	0x3c1ba1bd	0.009499011
52	0x3e6df091	0.232363
53	0x3e539fc1	0.2066641
54	0xbe1bc341	-0.15211202
55	0xbe980787	-0.29693243
56	0xbd6de62c	-0.058080837
57	0xbe6cf775	-0.23141272
58	0x3e6aeabf	0.22941111
59	0xbe030041	-0.12793066
60	0xbdbefc29	-0.093254395
61	0xbdb2d3d2	-0.08731808
62	0x3eb65121	0.3560877
63	0x3de15189	0.1100188
64	0xbe387842	-0.18014625
65	0x3d1f5173	0.038896035
66	0xbe4e3e95	-0.2014106
67	0xbe3c60c6	-0.18396291
68	0xbd10c7f9	-0.03534696
69	0x3dfd35ea	0.12363799
70	0xbd124f92	-0.035720415
71	0x3e2c9254	0.16852695
72	0x3e8246e5	0.25444713
73	0xbc96102e	-0.018318262
74	0x3ea05270	0.31312895
75	0x3ea91264	0.33021843
76	0x3e8d3644	0.27580464
77	0x3e68a843	0.22720437
78	0xbe478c75	-0.19487174
79	0x3e6b831c	0.22999233
80	0x3e51d3c4	0.20490938
81	0x3b4f35e1	0.0031617808
82	0x3e308738	0.17239082
83	0x3e99f629	0.30070618
84	0xbe3a0549	-0.18166079
85	0xbe089fc4	-0.13342196
86	0xbe4affbb	-0.19824116
87	0x3d393d23	0.04522432
88	0xbe0370f5	-0.12836058
89	0xbea87c2a	-0.3290723
90	0xbd821b15	-0.06352822
91	0x3e4498e4	0.19198948
92	0x3d9cd438	0.07657665
93	0x3e982317	0.2971427
94	0x3e879980	0.264843
95	0xbe6cbbbf	-0.23118494
96	0xbd49d585	-0.049275894
97	0x3ed47f38	0.4150331
98	0x3ec57286	0.38563937
99	0xbde10d1b	-0.10988828
100	0x3e3ded4e	0.18547556
101	0xbe952e24	-0.29136765
102	0xbdebdc5c	-0.115166396
103	0xbe7debfc	-0.24797052
104	0x3e11267c	0.14174837
105	0x3e924f25	0.28576007
106	0x3eae9f16	0.34105748
107	0x3e4b4e50	0.19854093
108	0x3c5d7058	0.013515554
109	0xbd1037ab	-0.03520934
110	0x3e025c55	0.12730534
111	0xbdd9f3c2	-0.10642196
112	0x3e7c560b	0.24642198
113	0x3cdfca36	0.027318101
114	0xbeb21de0	-0.34788418
115	0x3c9d9c87	0.019239677
116	0xbe1734fb	-0.14766304
117	0xbb4b42c5	-0.003101514
118	0xbe84b97b	-0.2592276
119	0xbe911e29	-0.28343323
120	0xbe0fac8a	-0.14030662
121	0xbde865c6	-0.11347537
122	0xbe32b625	-0.17452295
123	0x3e928adb	0.28621563
124	0xbe425d24	-0.18980843
125	0xbe2daf7b	-0.16961472
126	0xbe75f83e	-0.24020478
127	0x3ea3aa8f	0.31966063
128	0x3e70c4a3	0.23512511
129	0xbdafff31	-0.08593596
130	0xbe693492	-0.2277396
131	0x3dc039ab	0.09385999
132	0x3e643ba0	0.2228837
133	0xbccbee57	-0.024893923
134	0x3e98627e	0.29762644
135	0xbe5a2fb9	-0.21307267
136	0x3d23fc97	0.04003581
137	0xbe4ae3c4	-0.19813448
138	0x3e8cccb4	0.27499926
139	0x3d718300	0.058962822
140	0xbeb17528	-0.34659696
141	0x3e9626ff	0.29326627
142	0xbe85bb70	-0.26119566
143	0x3d15f16a	0.036607184
144	0x3e334b84	0.17509276
145	0x3e2d3d71	0.1691797
146	0x3e93969f	0.28825852
147	0xbe347f04	-0.17626578
148	0x3e78b459	0.24287547
149	0xbe86795f	-0.26264474
150	0x3d93843b	0.07202955
151	0xbe58d9fa	-0.21176901
152	0xbec1f5c5	-0.3788282
153	0xbe84afbb	-0.25915322
154	0xbe4d8bbe	-0.20072839
155	0x3e0a4360	0.13502264
156	0x3e45117e	0.19244954
157	0x3c9984fa	0.018740166
158	0xbda5433a	-0.08069463
159	0xbd104b58	-0.035228103
160	0x3e585879	0.211275
161	0x3e650684	0.22365767
162	0x3e374425	0.17897089
163	0xbda5cdbf	-0.080958836
164	0xbdad4644	-0.08460668
165	0x3e2ca37e	0.16859242
166	0xbe12f929	-0.1435286
167	0x3d26ab37	0.040690627
168	0x3e28923d	0.16462035
169	0xbe7d9461	-0.24763633
170	0x3e50c5d0	0.2038796
171	0xbe95b067	-0.29236147
172	0x3d4d55de	0.050130717
173	0xbe9232e8	-0.28554463
174	0x3eaaec59	0.33383444
175	0xbdc95e78	-0.098324716
176	0xbe830352	-0.2558847
177	0xbe2273ee	-0.15864536
178	0x3ea256e4	0.31706917
179	0x3e8641b6	0.26222008
180	0x3ea2cc39	0.31796435
181	0x3e38f391	0.18061663
182	0xbe531f03	-0.20617299
183	0xbdc4c58c	-0.096079916
184	0x3e6e17cb	0.23251264
185	0xbd9e858d	-0.077403165
186	0xbe2e537d	-0.17024036
187	0xbdc11bb3	-0.09429111
188	0x3e3a411c	0.181889
189	0xbe14b516	-0.14522204
190	0x3eaa7853	0.33294925
191	0x3d8e0841	0.06935168
192	0xbd8c31ee	-0.06845461
193	0xbe71c641	-0.23610784
194	0x3e479d7a	0.19493666
195	0x3e0def0f	0.13860725
196	0x3e389124	0.18024117
197	0xbe8ce8c9	-0.2752135
198	0xbb9b7a61	-0.0047448133
199	0x3ca76ca2	0.020437542
200	0xbe467939	-0.1938218
201	0x3e30895c	0.17239898
202	0xbea401bc	-0.32032573
203	0x3db0d376	0.08634083
204	0xbe8f0ac1	-0.27937892
205	0x3e8d8365	0.2763931
206	0x3ea99821	0.33123878
207	0x3d8aa2e8	0.06769353
208	0xbe8fa2c7	-0.28053877
209	0x3ead645e	0.33865637
210	0xbe3dc661	-0.18532707
211	0xbdf653ea	-0.12027724
212	0x3e6fd6c9	0.23421778
213	0xbe8ea758	-0.27862048
214	0xbe64ad7e	-0.22331807
215	0xbe4a06bc	-0.19729131
216	0xbe56a356	-0.20960745
217	0x3e11b8fd	0.14230724
218	0xbe9b25ee	-0.30302376
219	0xbe59d629	-0.21273102
220	0xbe3e7106	-0.18597803
221	0x3ea70708	0.32622552
222	0x3ea024a8	0.31277966
223	0x3e6fbcca	0.23411861
224	0x3e863074	0.26208842
225	0x3e80ce83	0.25157556
226	0x3e350e05	0.1768113
227	0xbe09964f	-0.13436244
228	0xbd963ee2	-0.07336213
229	0xbe845d48	-0.25852418
230	0xbe9f213a	-0.31080037
231	0x3dc9ffa4	0.09863213
232	0xbe3d1b53	-0.18467455
233	0xbda005c8	-0.07813603
234	0x3e76aa2b	0.24088351
235	0xbe9d3d08	-0.30710626
236	0xbe637dad	-0.2221591
237	0x3e8bc189	0.27296093
238	0x3db9ed27	0.09078436
239	0x3e99c577	0.30033466
240	0x3d676f89	0.056502853
241	0x3cffbcb9	0.03121792
242	0x3e4567f7	0.1927794
243	0x3e31f929	0.17380203
244	0x3e6e7819	0.23288001
245	0xbe44e34b	-0.1922733
246	0xbe2b4eaf	-0.16729234
247	0xbe971621	-0.2950907
248	0x3e492848	0.19644272
249	0x3dbdc762	0.09266545
250	0xbe09bb1d	-0.13450284
251	0xbe4fdd60	-0.20299292
252	0x3e00e3f5	0.12586959
253	0xbe649bd2	-0.22325066
254	0xbe3e5873	-0.18588428
255	0x3e9d3fe7	0.30712816

conv1.bias f4 [32]
0	0x3e8001b2	0.25001293
1	0xbe809973	-0.25117072
2	0x3eb5f67d	0.35539618
3	0x3de5911e	0.112093195
4	0x3e32fb0e	0.17478582
5	0xbe603b82	-0.218977
6	0x3e2ffafa	0.17185584
7	0xbc7c9ad0	-0.01541777
8	0xbe8bdf14	-0.27318633
9	0xbe1a2c57	-0.15055977
10	0xbd83fe0c	-0.0644494
11	0x3e6360b3	0.22204857
12	0x3de11cf5	0.10991851
13	0xbdac1d23	-0.08403995
14	0xbe5bd916	-0.2146953
15	0x3e4aad60	0.197927
16	0x3e9f0991	0.31061986
17	0xbe0786fe	-0.13235089
18	0xbe567015	-0.20941193
19	0xbe474ffe	-0.19464108
20	0xbe4522ff	-0.19251631
21	0xbeaa4e50	-0.33262873
22	0x3e34377d	0.17599292
23	0x3d8caf91	0.06869424
24	0xbe8cff3e	-0.27538484
25	0xbe8204f0	-0.25394392
26	0x3da08209	0.07837302
27	0x3e76e4c8	0.2411071
28	0x3ea53fbf	0.32275197
29	0x3bdfffe7	0.006835926
30	0x3c31c3ce	0.010849906
31	0x3e08edca	0.1337196

conv2.weight f4 [64, 32, 3, 3]
0	0xbbe6808a	-0.007034366
1	0x3d952bff	0.07283782
2	0xbc50affc	-0.01273727
3	0x3cb7e6da	0.022448946
4	0x3d4e8fea	0.050430216
5	0xbcb421af	-0.021988718
6	0xbb4e8cb1	-0.0031516964
7	0x3d285c2e	0.041103534
8	0x3d305663	0.043051135
9	0xbc9ad738	-0.018901452
10	0xbc282f69	-0.01026521
11	0xbd21a98f	-0.039468344
12	0xbcdd6236	-0.02702437
13	0x3cf6aeca	0.030112643
14	0x3c52d6c5	0.012868588
15	0xbce5e82f	-0.028064815
16	0x3cae58d1	0.021282585
17	0xbd00c3d1	-0.031436745
18	0xbc59f2c6	-0.013302511
19	0xbd812de8	-0.06307584
20	0xbcaf52cf	-0.02140179
21	0x3c7681a0	0.015045553
22	0xbcd26836	-0.025684457
23	0xbcd8c8df	-0.02646297
24	0xbc1f3487	-0.009717113
25	0xbcdba4a4	-0.026811905
26	0xbc1f83bb	-0.009735997
27	0xbcc01b18	-0.02345042
28	0x3b8a6ac8	0.004224155
29	0x3d2a94be	0.041645758
30	0x3d41ad9c	0.047284707
31	0x3cb5a453	0.022173082
32	0x3ba7420b	0.0051043085
33	0xbc517d5a	-0.012786234
34	0xbd65cbfa	-0.05610273
35	0xbbb884e5	-0.0056310766
36	0x3d38d5d7	0.04512581
37	0xbceae8f4	-0.028675534
38	0xbd5f68bd	-0.054543246
39	0x3cfb9bee	0.030714002
40	0x3cc71a88	0.024304643
41	0x3c6f5102	0.014606716
42	0x3c357041	0.011074127
43	0xbd88e575	-0.066843905
44	0xbb9271da	-0.0044691386
45	0xbc568054	-0.013092119
46	0xbc508466	-0.012726879
47	0xbd85e46a	-0.06537707
48	0x3c114027	0.008865393
49	0x3ca49165	0.02008886
50	0xbd7b5dc5	-0.061368722
51	0xbc5dea56	-0.01354464
52	0x3cdf9702	0.027293686
53	0x3c394e6a	0.011310199
54	0x3d56d5d9	0.052450035
55	0xbcc90bcf	-0.024541764
56	0xbd85afde	-0.06527685
57	0x3d2d6a89	0.042337928
58	0x3c331ee9	0.0109326625
59	0x3c99ca50	0.018773228
60	0xbbbc70ed	-0.0057507665
61	0x3d7b3263	0.06132735
62	0x3caf53aa	0.021402199
63	0x3adaf1a9	0.00167041
64	0xbba71e6d	-0.0051000626
65	0x3c88868d	0.016665721
66	0x3ccea952	0.025227223
67	0x3d417ee6	0.04724016
68	0x3c8a1001	0.016853334
69	0xbd108257	-0.03528055
70	0xbd04ae5c	-0.032392845
71	0xbc24493d	-0.010027227
72	0xbd322289	-0.043489967
73	0xbcb666de	-0.022265848
74	0xbbcd9ada	-0.0062745633
75	0x3d6daf94	0.058028772
76	0x3cfc9436	0.030832391
77	0x3c1043ac	0.008805197
78	0x3c7dfae5	0.015501712
79	0xbd680c98	-0.056652635
80	0x369ef050	4.736743e-06
81	0x3b05b02f	0.0020399203
82	0x3d830f8c	0.0639945
83	0xbd233b8f	-0.03985172
84	0xbbbb17b0	-0.005709611
85	0xbd8a492b	-0.06752237
86	0xbc914bda	-0.017736364
87	0xbd0349d8	-0.032052845
88	0x3cae1a1b	0.021252682
89	0xbce70870	-0.028202266
90	0x3c830db6	0.015997749
91	0xbd2a15f6	-0.04152485
92	0x3cadf2e7	0.021233989
93	0xbd86ac2c	-0.06575808
94	0x3d18f959	0.03734717
95	0x3d93dcbe	0.072198376
96	0xbc89f2fc	-0.016839497
97	0x3d40f8e1	0.04711235
98	0x3d82b6d0	0.06382525
99	0xb8e85457	-0.000110783316
100	0x3cb53d82	0.022124056
101	0xbd67e704	-0.056616798
102	0x3c362010	0.011116043
103	0xbc8b5d3f	-0.017012237
104	0x39b5ad7b	0.00034652263
105	0x3d2a25a0	0.04153979
106	0x3d60f53c	0.054921374
107	0x3d8267ab	0.06367429
108	0x3c9011aa	0.017586548
109	0xbcd839e7	-0.026394797
110	0x3c9d4467	0.019197656
111	0xbd771ce7	-0.060330298
112	0xbcc662f0	-0.024217099
113	0x3cc188c0	0.023624778
114	0x3d5abea3	0.05340446
115	0x3c9d7e4a	0.019225258
116	0x3d3d30bd	0.04618906
117	0x3d09a486	0.033604167
118	0xbc74c59a	-0.01493969
119	0x3d18c4d3	0.03729708
120	0x3c16798d	0.009184253
121	0xbd158558	-0.03650412
122	0x3c3c4e32	0.011493253
123	0xbd6f6bf1	-0.05845255
124	0xbd573ec4	-0.052550092
125	0xbd8928f3	-0.066972636
126	0x3c814745	0.015781054
127	0xbd0b7e61	-0.03405607
128	0xbcb61350	-0.022226006
129	0x3d453d0c	0.048153922
130	0xbc019f47	-0.00791151
131	0x3d375174	0.044755414
132	0x3cf46e0e	0.029837634
133	0x3d66ad0d	0.056317378
134	0xbd365cba	-0.044522025
135	0x3b731dc7	0.0037096606
136	0xbb9e4989	-0.0048305434
137	0xbca0b737	-0.019618614
138	0xbcf85572	-0.030314181
139	0xbd26d7e9	-0.04073325
140	0xbc11b591	-0.008893386
141	0x3b1a91f4	0.002358553
142	0x3d200570	0.039067686
143	0x3d460c62	0.048351653
144	0x3c383506	0.0112431105
145	0xbb8394f9	-0.0040155617
146	0xbba2c85e	-0.0049677333
147	0x3d34028c	0.04394774
148	0x3d03e88c	0.032204196
149	0xbd4f3b6f	-0.05059379
150	0x3ca9ff28	0.02075155
151	0xbd8755da	-0.06608172
152	0x3d0fdbef	0.035121854
153	0x3d41e86a	0.047340788
154	0x3c1c3501	0.0095341215
155	0xbd4f4fe1	-0.050613288
156	0xbc940037	-0.018066509
157	0x3c76e314	0.015068788
158	0xbd8156a0	-0.063153505
159	0xbcb50390	-0.022096425
160	0xbd316300	-0.043307304
161	0xbd24f29c	-0.040270433
162	0x3cf8e1cb	0.030381104
163	0x3c1b4a72	0.009478198
164	0xbc233387	-0.009961016
165	0x3cfafebf	0.03063905
166	0x3cb6f475	0.022333363
167	0xbd69c147	-0.05706909
168	0x3c43b4d8	0.011944972
169	0xbd6804b5	-0.056645114
170	0xbcfda333	-0.030961609
171	0xbd0f83c5	-0.035037775
172	0xbd002b9f	-0.0312916
173	0xbd209d21	-0.03921235
174	0xbd19616e	-0.03744643
175	0x3d24eb2c	0.04026334
176	0x3d22c327	0.039736893
177	0x3d111c41	0.035427336
178	0x3c9a0aef	0.018804042
179	0x3d208806	0.039192222
180	0x3ce1e933	0.027577018
181	0xbd3bdd44	-0.045865312
182	0xbbe735f4	-0.0070559923
183	0x3d0b3e09	0.03399471
184	0x3be8cb87	0.0071043405
185	0xbd80fb07	-0.0629788
186	0x3cbbae21	0.02291018
187	0xbd8226fc	-0.06355092
188	0xbd673298	-0.056444734
189	0x3cc45f4d	0.023971224
190	0x3d43bab5	0.04778548
191	0x3d31827a	0.043337323
192	0xbc44fa44	-0.012022559
193	0x3ca581a2	0.020203415
194	0x3cfd6d3a	0.030935872
195	0xbc555ca8	-0.013022579
196	0xbd823bdb	-0.06359073
197	0xbb8770dc	-0.004133327
198	0xbc4149ef	-0.011797412
199	0xbd728008	-0.05920413
200	0xbcb783f9	-0.022401797
201	0x3d52459c	0.051335916
202	0xbd7a1fc9	-0.06106547
203	0x3c14af89	0.009075054
204	0x3d81f7e9	0.06346113
205	0x3d4d7c83	0.05016757
206	0x3c394a34	0.011309195
207	0xbd010c43	-0.031505834
208	0x3d5ecde2	0.054395564
209	0x3c59058b	0.01324595
210	0xbd3c8da0	-0.0460335
211	0xbc04c26a	-0.008102993
212	0xbcb11271	-0.021615239
213	0x3ce02060	0.027359188
214	0x3d63810c	0.05554299
215	0x3b84e79f	0.0040559317
216	0x3b5e037d	0.003387659
217	0xbd3731f7	-0.044725385
218	0x3c6c44c9	0.0144206965
219	0x3d0ff46e	0.035145216
220	0x3d1278fe	0.03575992
221	0x3cf1b26f	0.02950403
222	0x3d3dc02d	0.04632585
223	0x3d49bf96	0.049254976
224	0x3c0a5c91	0.008444921
225	0xbd2b96da	-0.04189191
226	0x3d4ef6ee	0.05052846
227	0x3c5c2b77	0.013438097
228	0xbce10ecc	-0.027472876
229	0xbd7e8611	-0.062139574
230	0xb9eff367	-0.0004576698
231	0xbb974cd9	-0.0046173153
232	0xbc0230b3	-0.007946181
233	0x3d079baa	0.033107437
234	0x3cedd5a9	0.029032545
235	0xbd5bc5f4	-0.05365558
236	0x3c6c5801	0.014425279
237	0xbd122e2f	-0.035688575
238	0x3aa13c75	0.0012301343
239	0xbcc98f56	-0.02460448
240	0xbd7980b9	-0.060913775
241	0x3c39dee4	0.011344645
242	0xbd0a9896	-0.033836924
243	0x3d96ec0b	0.073692404
244	0xbc91b035	-0.017784217
245	0xbcb8f419	-0.022577332
246	0xbd193fc0	-0.037414312
247	0xbc74dfd5	-0.014945944
248	0xbc49ee6f	-0.012324913
249	0xbcf09275	-0.029366711
250	0x3d25ab30	0.04044646
251	0xbc962dcd	-0.018332386
252	0x3d5265b3	0.05136652
253	0xbd00579f	-0.031333562
254	0x3ca92f18	0.020652339
255	0xbd72421a	-0.05914507

conv2.bias f4 [64]
0	0x3cd2e9f9	0.025746332
1	0x3c0ba75e	0.00852379
2	0x3c9e1a50	0.019299656
3	0xbd799ef9	-0.060942624
4	0xbd365025	-0.044510026
5	0x3bfcd558	0.0077158622
6	0xbc499478	-0.012303464
7	0xbc1ce9c7	-0.009577221
8	0xbd6903df	-0.056888457
9	0x3d804fd3	0.06265225
10	0x3a426fdc	0.0007417181
11	0xbd45656b	-0.048192423
12	0x3d66c561	0.05634058
13	0xbca2afa8	-0.01985915
14	0x3beebfcc	0.0072860476
15	0xbb8e1d93	-0.0043370216
16	0x3d8bf0ef	0.06833064
17	0x3cf6dd13	0.030134713
18	0xbbda2800	-0.0066576004
19	0xbd6e22d0	-0.05813867
20	0xbd363dc1	-0.044492487
21	0x3d0be26f	0.03415149
22	0x3c046ec0	0.0080830455
23	0x3cffdbe5	0.031232784
24	0x3c32e495	0.010918756
25	0x3dc2f0c7	0.09518581
26	0xbd83df59	-0.064390846
27	0x3cf511cb	0.02991571
28	0x3d45fc1c	0.048336133
29	0x3d3212e2	0.04347504
30	0x3d18cf89	0.037307296
31	0x3b2bf84b	0.0026240523
32	0xbd137c59	-0.03600726
33	0x3d74fd8f	0.059812125
34	0x3d4db765	0.050223727
35	0xbd48bfe9	-0.049011145
36	0x3d23cc1e	0.039989583
37	0xbc40e7a3	-0.0117739765
38	0xbcdc090f	-0.026859788
39	0xbd661507	-0.056172397
40	0xbc41292e	-0.011789603
41	0x3c648185	0.0139468955
42	0x3ce9e3eb	0.028551063
43	0x3c24df85	0.010063057
44	0x3d1c4b0f	0.03815752
45	0xbc1a5ed8	-0.009422027
46	0x3d1329f5	0.035928685
47	0xbcfd9e2f	-0.030959217
48	0x3cbe6c2b	0.023244938
49	0xbbf74574	-0.0075461213
50	0xbd0b17aa	-0.033958115
51	0x3bce7780	0.0063008666
52	0x3d9100ce	0.070802316
53	0xbd8626e8	-0.065503895
54	0x3cbd3ddc	0.023100786
55	0x3d504d02	0.05085469
56	0x3aa4af08	0.001256437
57	0x3c8355ae	0.016032066
58	0xbc91c010	-0.017791778
59	0xbcffa8d0	-0.031208426
60	0xbb4ffd6e	-0.003173675
61	0x3cedbe95	0.02902154
62	0x3d050276	0.03247305
63	0x3d1b06e6	0.037848376

conv3.weight f4 [64, 64, 3, 3]
0	0xbc8fc7c7	-0.017551316
1	0xb95cc891	-0.00021055552
2	0x3c252880	0.010080457
3	0x3c2f14f4	0.010686148
4	0x3c34b742	0.01103002
5	0xbcd019ae	-0.02540287
6	0xbc97eabb	-0.018544545
7	0x3cf58039	0.029968368
8	0xbce158cc	-0.027508162
9	0x3d022e3f	0.031782385
10	0x3cdfbcba	0.027311672
11	0xbbe3f860	-0.006957099
12	0xbdacfd37	-0.084467344
13	0xbd6e27d0	-0.058143437
14	0xbd3cfbf0	-0.046138704
15	0x3c9293ae	0.017892685
16	0x3c4d2d35	0.012522985
17	0xbc90d6b3	-0.017680502
18	0x3c8d8373	0.017274594
19	0x3c9a4c48	0.018835202
20	0x3d26b0fe	0.040696137
21	0xbc9f4446	-0.019441735
22	0xbd1a43a7	-0.037662175
23	0xbbb1c084	-0.005424561
24	0x3c2bd3f3	0.010487544
25	0xbc5ea08a	-0.01358808
26	0x3b8f2a30	0.004369043
27	0x3d1fb04e	0.038986497
28	0xbcc7ef21	-0.024406018
29	0xbca96fe3	-0.020683235
30	0xbc9d6cc7	-0.019216908
31	0x3d4dae5d	0.050215114
32	0x3d0eabf2	0.03483195
33	0x3ca6a01d	0.02034002
34	0xbcb65ddc	-0.022261553
35	0xbc1820ba	-0.009285146
36	0xbcf2740c	-0.029596351
37	0xbcd6db43	-0.026227599
38	0x3c178924	0.0092490055
39	0x3b29d773	0.0025915771
40	0x3bc374fd	0.005964874
41	0x3d03c340	0.032168627
42	0xba92c907	-0.0011198827
43	0x3cbb0867	0.022831155
44	0x3b2a3dca	0.002597677
45	0xbd204621	-0.03912938
46	0xbcd7db0d	-0.026349569
47	0xbd266bd4	-0.040630177
48	0x3d0a015b	0.0336927
49	0xbd02fd38	-0.03197977
50	0xbccef9a1	-0.025265517
51	0xbb6f91d2	-0.0036555422
52	0x3cffa1cd	0.031205082
53	0x3ca98ba6	0.020696472
54	0x3cc588d8	0.024113104
55	0x3a23f969	0.00062551216
56	0xbc3ec57c	-0.011643764
57	0xbd1f3d9d	-0.03887712
58	0x3c9d32e1	0.0191893
59	0x3d269532	0.040669627
60	0xbbbb331c	-0.00571288
61	0x3d09cd1a	0.033642866
62	0x3c3a3491	0.011365072
63	0xbda3edf2	-0.08004369
64	0x3d966826	0.073440835
65	0xbc6ddffb	-0.014518733
66	0xbc7bfb8d	-0.015379799
67	0xbd57605f	-0.05258214
68	0xbd8bfd4d	-0.06835423
69	0x3c7a706d	0.015285593
70	0xbd8dc178	-0.06921667
71	0xbd89d6bf	-0.06730413
72	0xbcfd643b	-0.030931583
73	0x3cafae05	0.021445284
74	0xbc99a9ec	-0.018757783
75	0x3ce189c4	0.027531512
76	0xbcbaabe1	-0.022787036
77	0x3d36df35	0.04464646
78	0x3d17a8e5	0.037026305
79	0x3d147613	0.036245417
80	0xbcc212ff	-0.023690699
81	0x3ccd93bf	0.025094865
82	0x3c1d7ce1	0.009612293
83	0xbcd9f278	-0.026604876
84	0x3d071d30	0.03298682
85	0xbb433da4	-0.002979138
86	0x3a2f6878	0.0006691287
87	0xbd146dff	-0.036237713
88	0xbbaae2a2	-0.005215005
89	0xbce26278	-0.027634844
90	0x3cb541b6	0.02212606
91	0x3d207e6c	0.039183065
92	0x3bc3f053	0.0059795766
93	0xbcb24c9c	-0.021765046
94	0xbcc78608	-0.024355903
95	0x3ba98f0d	0.0051745237
96	0x3bd47b62	0.006484435
97	0x3d148881	0.036262993
98	0xbd1af144	-0.037827745
99	0x3d07ebfb	0.033184033
100	0xbd295826	-0.04134383
101	0xbb6b40d6	-0.00358968
102	0x3d2f1ef5	0.042754132
103	0xbb9b3009	-0.004735951
104	0xbd007fd9	-0.031371925
105	0xbb3407ec	-0.0027470542
106	0xbce8a53c	-0.028399102
107	0x3ce86381	0.02836776
108	0x3b749723	0.003732153
109	0x3c38b7d4	0.011274297
110	0x3d5b060f	0.053472575
111	0xbd885135	-0.06656114
112	0xbce02c4e	-0.027364876
113	0x3d7d181e	0.061790578
114	0x3c80e2ac	0.015733086
115	0xbbe5f7eb	-0.0070180795
116	0xbb6f4ab3	-0.003651303
117	0x3cf5f731	0.030025097
118	0xbd047dc6	-0.03234651
119	0x3d01d2c2	0.031695135
120	0xbd1904db	-0.037358146
121	0x3c42bda8	0.011886038
122	0xbc3bceb7	-0.011462859
123	0xbcf98a3d	-0.030461425
124	0xbd4ab817	-0.049491968
125	0xbd64f67c	-0.05589913
126	0xbcf22ab6	-0.029561382
127	0xbc645d12	-0.013938205
128	0xbb2a342b	-0.0025971036
129	0x3afe1e27	0.0019387648
130	0x3d7b6a0c	0.06138043
131	0xbbed996d	-0.007250956
132	0x3d095974	0.033532575
133	0xba62adec	-0.0008647132
134	0x3c1792ca	0.009251306
135	0x3cd0bbbf	0.02548015
136	0xbcd973dc	-0.026544504
137	0x3bd71184	0.0065633673
138	0x3cc39d37	0.023878677
139	0x3c2bfd0a	0.010497341
140	0x3c1c6471	0.0095454315
141	0x3cf97880	0.030452967
142	0xbc71c278	-0.014755838
143	0x3c63875d	0.013887254
144	0x3c6627a5	0.014047538
145	0xbc3c2896	-0.011484286
146	0x3c835ece	0.016036417
147	0xbd0fe011	-0.035125796
148	0x3c484d2f	0.012225433
149	0x3c09654e	0.008385969
150	0x3c69546a	0.014241317
151	0xbd435961	-0.04769266
152	0xbd0145a1	-0.031560544
153	0xbc97315d	-0.018456155
154	0xbc0fd30e	-0.008778347
155	0x3bf62049	0.007511173
156	0x3d26d951	0.040734593
157	0xbd27f681	-0.04100657
158	0x3cfd1ce4	0.030897565
159	0x3cd061bb	0.025437227
160	0xbd0fb487	-0.035084274
161	0x3c06d8f5	0.0082304375
162	0xbc085f39	-0.008323484
163	0xbc649ce7	-0.013953424
164	0x3cfdcd08	0.030981556
165	0x3cc75eab	0.024337133
166	0x3cd3c493	0.02585057
167	0x3ce619e9	0.028088527
168	0xbd0b55c5	-0.034017343
169	0x3cfd97f0	0.030956239
170	0x3d32ccf6	0.043652497
171	0xbd08bc46	-0.033382677
172	0xbc8cf00b	-0.017204305
173	0xbce46a92	-0.027882848
174	0xbd216845	-0.03940608
175	0xbccc9dde	-0.02497762
176	0x3c37f260	0.01122722
177	0xbc0719b1	-0.008245871
178	0xbd157e39	-0.03649733
179	0xbd1af964	-0.037835494
180	0xbc0bbb03	-0.008528474
181	0xbcfd5782	-0.030925516
182	0x3cb9dfa5	0.02268965
183	0x3cb627b5	0.02223573
184	0xbd0a6279	-0.033785317
185	0xbc99a13b	-0.018753638
186	0xbc8deb56	-0.017324131
187	0xbc90815e	-0.017639812
188	0x3b3bba4d	0.002864498
189	0xbd2edebb	-0.04269288
190	0xbcb32b6a	-0.021871287
191	0xbc552a80	-0.013010621
192	0xbcde0fd8	-0.027107164
193	0xbd1e197e	-0.03859853
194	0x3cbef02b	0.02330788
195	0x3c07db97	0.0082921
196	0x3cb53931	0.022121998
197	0xbd2df47e	-0.042469494
198	0x3bc1857b	0.0059058047
199	0x3d06bdea	0.03289596
200	0xbb4ad058	-0.0030946936
201	0x3bedff36	0.0072630895
202	0x3a2d047d	0.0006600095
203	0xbc91df9c	-0.01780682
204	0xbc1dd99d	-0.009634403
205	0xbd1c8a79	-0.038217995
206	0xbcbc4f45	-0.022987017
207	0xbb90f625	-0.004423874
208	0xbd03d161	-0.0321821
209	0xbc8e77df	-0.017391143
210	0x3c93497e	0.01797938
211	0xbd0a0db5	-0.03370448
212	0xbcd165fe	-0.025561329
213	0x3d22156d	0.039571214
214	0xbb610cf8	-0.0034340005
215	0xbc824554	-0.015902199
216	0xbca4ca50	-0.020116001
217	0xbd1145cb	-0.03546695
218	0x3cd5e91d	0.026112134
219	0x3ba4592c	0.005015513
220	0x3a3b527f	0.0007145777
221	0x3bbd8b28	0.005784411
222	0xbc3ce740	-0.011529744
223	0x3bc4a66e	0.0060012853
224	0x3d0e9d67	0.03481808
225	0x3ccf47a4	0.025302716
226	0x3cc79e1c	0.024367385
227	0xbba403c7	-0.005005333
228	0x3cd18d91	0.0255802
229	0xbd4386ee	-0.0477361
230	0x3cffa5fe	0.03120708
231	0xbd08a6a0	-0.03336203
232	0x3c578aa8	0.013155617
233	0xb9f0750c	-0.00045863574
234	0x3cf62205	0.030045519
235	0x3b3bd866	0.002866292
236	0x3d16c25e	0.036806457
237	0x3cdcb317	0.026940865
238	0x3c281167	0.010258055
239	0xbb995e37	-0.0046804207
240	0xbd02f9f3	-0.03197665
241	0x3ac4a1b3	0.0015001803
242	0x3cd8a769	0.026447015
243	0x3d410ab8	0.047129363
244	0x3b95f73d	0.0045765922
245	0x3ce6d8f7	0.028179629
246	0xbb83f866	-0.004027414
247	0x3cd3d001	0.02585602
248	0x3d51024f	0.051027592
249	0xbc602f8e	-0.013683213
250	0xbd839160	-0.064242125
251	0xbd896aa1	-0.06709791
252	0x3cf4957f	0.029856442
253	0xbd2c32bd	-0.042040575
254	0x3d36a639	0.044592116
255	0xbba4fd5d	-0.005035086

conv3.bias f4 [64]
0	0xbd3083a7	-0.043094303
1	0x3cae8e61	0.021308126
2	0x3d067a6d	0.032831598
3	0x3cf33554	0.029688515
4	0x3ca6ab63	0.020345395
5	0xbcd8b258	-0.026452228
6	0xbd0cc6e1	-0.034369353
7	0x3d3214ed	0.043476988
8	0x3c9110f1	0.017708274
9	0xba52b9e0	-0.0008038562
10	0xbcc35294	-0.023843087
11	0xbd4127e1	-0.047157172
12	0x3bc91e50	0.0061376467
13	0xbcb1ddba	-0.021712173
14	0xbc52a329	-0.012856283
15	0xbcd7ddfa	-0.026350964
16	0x3ca3213e	0.019913312
17	0xbcf6b7ea	-0.030116994
18	0x3cec1052	0.028816376
19	0x3cb2c8a8	0.021824196
20	0xbd80c9ca	-0.06288488
21	0x3c32557c	0.010884639
22	0x3d04288e	0.03226524
23	0x3c14f6b7	0.0090920245
24	0xbcac15eb	-0.021006545
25	0xbd1cb88e	-0.038261943
26	0x3d354353	0.04425366
27	0xbd4609cc	-0.048349187
28	0xba9c7b34	-0.0011938573
29	0xbcf55c1d	-0.02995115
30	0x3c173b5f	0.009230464
31	0x3c42ae69	0.011882403
32	0x3cd30966	0.025761317
33	0xbc6f7219	-0.014614605
34	0x3cae158d	0.02125051
35	0x3c1b63e8	0.009484269
36	0x3c65c0ad	0.014022988
37	0xbd44c7c3	-0.04804207
38	0xbc61ec68	-0.013789274
39	0xbcf78887	-0.030216468
40	0xbd44f923	-0.048089158
41	0x3c287eaf	0.01028411
42	0xbc460f40	-0.012088597
43	0x3cf61b23	0.030042237
44	0x3cc190ae	0.023628559
45	0x3c0cee8c	0.008601796
46	0x3b459f23	0.0030154667
47	0x3cacea91	0.021107944
48	0xbb15b9a7	-0.0022846253
49	0xbd4a6c4f	-0.049419697
50	0xbbd184ee	-0.0063940203
51	0xbcb0f33a	-0.021600354
52	0xbcbaddf4	-0.022810914
53	0x3cd8f6e5	0.026484916
54	0xbd3c442a	-0.045963444
55	0xbce8c395	-0.028413573
56	0xbd41c02c	-0.04730241
57	0x3ce91297	0.028451247
58	0xbd3c3254	-0.045946434
59	0x3c8a3425	0.016870568
60	0xbd0bca67	-0.034128573
61	0xbcb9ee7f	-0.022696732
62	0x3be663be	0.007030933
63	0xbc65529c	-0.013996746

fc1.weight f4 [128, 640]
0	0x3c142ed9	0.0090443725
1	0x3c8425ad	0.016131246
2	0xbb98a011	-0.0046577533
3	0xbca2d239	-0.019875633
4	0x3beb6b4d	0.007184422
5	0x3cc565aa	0.024096329
6	0x3bd8ab5e	0.0066122254
7	0xbc1a944b	-0.00943477
8	0xbd007a3f	-0.031366583
9	0x3acc33dc	0.001557942
10	0x3c87b251	0.01656452
11	0xbb4a7d40	-0.0030897409
12	0x3c29e9a8	0.010370649
13	0x3c56f5f2	0.013120161
14	0xbd13a685	-0.036047477
15	0xbd02b8af	-0.03191441
16	0xbcf4ac0c	-0.029867195
17	0xbc01d80b	-0.007925044
18	0x3ca760d7	0.020431919
19	0xbd0eccf4	-0.034863427
20	0xbc79424d	-0.015213561
21	0xbd9bfd68	-0.07616693
22	0xbcc69495	-0.024240771
23	0x3cc67dee	0.02422997
24	0xbd108d34	-0.03529091
25	0xbbcd9aa8	-0.00627454
26	0xbc9a7f4a	-0.018859524
27	0xbcffeab1	-0.03123984
28	0x3c4e37ed	0.012586576
29	0xbbe7587a	-0.007060108
30	0xbc3ec0e7	-0.011642671
31	0xbc82cd9d	-0.015967185
32	0xbbf70be1	-0.007539258
33	0x3ca0bb94	0.019620694
34	0x3cba3dc0	0.022734523
35	0xbd15f478	-0.036610097
36	0xbc849e7d	-0.016188854
37	0xbd2d0474	-0.042240575
38	0xbd090166	-0.0334486
39	0xbcfb4d72	-0.030676577
40	0xbc85a705	-0.016314993
41	0x3d1d56d4	0.038412884
42	0x3d2b8608	0.04187587
43	0xbcef7e23	-0.029234951
44	0x3d16b4bb	0.03679345
45	0x3cd45d98	0.025923535
46	0xbd0c8897	-0.03430995
47	0xbc9c8dcb	-0.01911058
48	0x3d3182a1	0.043337468
49	0xbd073c50	-0.033016503
50	0x3c9c1b29	0.01905592
51	0x3d31db8d	0.04342227
52	0xbc5fdeb8	-0.01366394
53	0x3c8fc2be	0.017548915
54	0x3cb0ec51	0.02159706
55	0xbcb49610	-0.022044212
56	0xbb27278d	-0.0025505752
57	0x3c2eedc2	0.010676803
58	0x3bc6c970	0.0060664937
59	0x3c30f87d	0.010801432
60	0x3c478705	0.012178187
61	0xbce89c10	-0.028394729
62	0xbc61d992	-0.013784783
63	0x3c36bc08	0.011153229
64	0xba997d23	-0.0011710267
65	0x3c72d8f8	0.014822237
66	0x3b1bc44b	0.0023768123
67	0xbd271e4d	-0.04080038
68	0xbcd99bdf	-0.026563583
69	0xbb992e52	-0.0046747113
70	0x3c5293dd	0.012852636
71	0xbc8cfc8b	-0.017210266
72	0x3d2514fd	0.04030322
73	0xbc45854c	-0.012055706
74	0x3ca2e145	0.019882808
75	0x3af95763	0.0019023236
76	0xbc8e4f73	-0.017371869
77	0x3c6666e5	0.014062618
78	0x3c12f07b	0.008968468
79	0x3c1ad43c	0.009450015
80	0x3d2578e5	0.040398497
81	0x3b16a447	0.00229861
82	0x3c64ffc7	0.013976998
83	0xba0a4352	-0.0005274314
84	0xbc1c8fd1	-0.009555773
85	0xbcb0403c	-0.021515004
86	0xbc8c96a9	-0.017161684
87	0xbc93957c	-0.018015616
88	0xbc951bfa	-0.018201817
89	0xbc72669f	-0.014794975
90	0xbcbdb809	-0.023159044
91	0x3b9f0786	0.004853192
92	0xbc8c4fbb	-0.017127862
93	0xbbd7bd2c	-0.0065838303
94	0xbcdeddd3	-0.027205383
95	0x3cdfe37c	0.027330153
96	0x3d0a1879	0.033714745
97	0x3bea62ba	0.0071528824
98	0x3c4a1552	0.012334185
99	0x3cdc394c	0.02688279
100	0xbd15a7fe	-0.036537163
101	0xbcd1f58e	-0.025629785
102	0xbbf26fea	-0.007398595
103	0x3d264834	0.040596202
104	0x3be256cb	0.006907319
105	0x3c45101b	0.012027766
106	0x3c0a0d4b	0.008426021
107	0xbcc1a1f3	-0.023636794
108	0x3c107ff2	0.008819567
109	0x3d14bd46	0.036313318
110	0xbb894409	-0.0041890186
111	0xbd0e5cbc	-0.034756407
112	0x3b638ef8	0.0034722667
113	0x3cbc5070	0.022987574
114	0xbd0737c4	-0.033012167
115	0xbd060e9b	-0.032728773
116	0x3d0099fe	0.03139686
117	0xbceeaea9	-0.029136019
118	0xbd12f6eb	-0.03588001
119	0x38f5e60c	0.0001172536
120	0xbd0b8e8d	-0.034071494
121	0x3cda05e6	0.02661414
122	0x3ad47645	0.0016209563
123	0x3c8555a5	0.01627619
124	0x3c0f5644	0.008748595
125	0xbced2fa8	-0.028953388
126	0xbcbb1c76	-0.02284072
127	0xbd1bcc0c	-0.03803639
128	0xbd02c8b4	-0.031929687
129	0xbca4e99d	-0.020130927
130	0xbc0218b0	-0.007940456
131	0xbcb77fc3	-0.022399789
132	0x3d5627f3	0.052284192
133	0xbc9f9f90	-0.019485265
134	0x3d7b5dd9	0.061368797
135	0x3be3b6ff	0.006949305
136	0xbcae773d	-0.021297092
137	0x3d0e18d9	0.034691665
138	0x3d07721f	0.03306782
139	0x3c3ab2cd	0.0113951685
140	0x3c867d22	0.01641709
141	0x3cc01b5b	0.023450544
142	0x3cccef8b	0.025016567
143	0x3d215ac1	0.03939319
144	0xbd0877b6	-0.03331729
145	0x3ad4eefb	0.0016245538
146	0xbb67f3fd	-0.003539323
147	0xbcc57834	-0.024105169
148	0xbc11779f	-0.008878618
149	0x3b9e54bc	0.0048318785
150	0x3c85b3f8	0.016321167
151	0xbba88a14	-0.0051434133
152	0xbbfa1f4a	-0.0076331245
153	0x3d0599d6	0.032617413
154	0xbcb6efd2	-0.022331152
155	0x3c04bd01	0.008101703
156	0x3c13fbf8	0.009032242
157	0x3cc68ff4	0.024238564
158	0xbb918fc4	-0.004442187
159	0xbc87a237	-0.016556842
160	0xbd089660	-0.033346534
161	0x3d6e90d8	0.058243603
162	0x3c8e8058	0.017395183
163	0x3d475a5f	0.04867017
164	0xbd171ad9	-0.03689084
165	0x3cb39a4e	0.021924164
166	0xbbab8074	-0.0052338187
167	0x3b9cabaf	0.0047812085
168	0x3c87c118	0.016571566
169	0x3ccf4919	0.02530341
170	0xbd5f9e84	-0.05459453
171	0x3a3ab28e	0.00071219436
172	0x3d094942	0.03351713
173	0xbb9eab4a	-0.0048421966
174	0xbd0c4141	-0.03424192
175	0xbd611791	-0.054954115
176	0xbbc7c031	-0.006095909
177	0xbd522b92	-0.051311083
178	0xbb8d1d37	-0.004306461
179	0xbc5d385a	-0.013502205
180	0x3c4edf52	0.012626486
181	0x3bb9a782	0.0056657204
182	0xbb298a2e	-0.0025869715
183	0xbcdca87f	-0.026935814
184	0x3d2a6b28	0.0416061
185	0x3b4a319f	0.003085233
186	0x3c9d6c6f	0.019216744
187	0xbc45aea8	-0.012065567
188	0xbd2ad131	-0.041703407
189	0xbcdcca3c	-0.026951902
190	0xbcdcd1f0	-0.026955575
191	0xbc3fdb3a	-0.0117099825
192	0x3cd08c46	0.025457513
193	0xbc40cf55	-0.011768182
194	0x3ca7fbdf	0.020505844
195	0x3cda0e58	0.026618168
196	0xbd1b73c3	-0.037952196
197	0xbcbd905b	-0.023140123
198	0x3c2eb392	0.01066293
199	0x3d169a6c	0.036768362
200	0x3d116158	0.035493225
201	0x3d54b27f	0.05192804
202	0xbca5c0aa	-0.020233471
203	0xbc14b56e	-0.009076459
204	0x3bfd03fc	0.0077214222
205	0xbae14f02	-0.0017189684
206	0x3cd8a966	0.026447963
207	0x3d1a4c7a	0.03767059
208	0x3d0647e9	0.032783423
209	0x3cc52faa	0.02407058
210	0xbaf90983	-0.0019000027
211	0x3c83543c	0.016031377
212	0xbc9f761d	-0.0194655
213	0x3c0a7736	0.008451274
214	0x3bb3daf3	0.0054887473
215	0x3b37189e	0.0027938257
216	0x3cba9d9f	0.022780238
217	0xbcb4deae	-0.022078838
218	0x3cc859ac	0.024456821
219	0x3cdd2c3f	0.026998637
220	0xbcb23918	-0.02175574
221	0x3c201961	0.009771676
222	0xbc87f094	-0.016594209
223	0xbd3430b1	-0.04399175
224	0x3c8c7477	0.017145379
225	0xbcb93aab	-0.022610983
226	0xbc3fd2a9	-0.01170794
227	0x3b6dd1ba	0.0036288337
228	0xbca893cc	-0.020578288
229	0x3c36941e	0.011143712
230	0x3b20a9a5	0.0024515179
231	0xbc3a56e9	-0.01137326
232	0xbced52b3	-0.028970098
233	0xbbfe7266	-0.007765102
234	0x3b96ca83	0.004601778
235	0xbd08d17e	-0.033402912
236	0xbc14dd07	-0.0090859
237	0x3b8108a8	0.0039377995
238	0x3c5b2023	0.013374361
239	0xbcaa296e	-0.020771708
240	0x3d60b5bd	0.05486082
241	0x39e31f3d	0.00043320088
242	0x3bed8a14	0.007249126
243	0x3d704b83	0.058665764
244	0x3ad5352f	0.001626646
245	0x3d872dfd	0.066005684
246	0xbc86c464	-0.016451068
247	0x3d5fca02	0.05463601
248	0x3d2ba774	0.041907743
249	0x3b96ba3d	0.004599838
250	0x3d072725	0.032996316
251	0xbdaa88a1	-0.08326841
252	0xbc86004b	-0.016357562
253	0x3cbc7568	0.023005202
254	0x3d0fd008	0.035110503
255	0xbce1ba6c	-0.027554713

fc1.bias f4 [128]
0	0x3cb24993	0.021763599
1	0xbafc3663	-0.0019242283
2	0xbd264654	-0.040594414
3	0xbc294ea3	-0.01033369
4	0xbbe94f0b	-0.0071200184
5	0xbcdf04ad	-0.02722391
6	0xbcc794c3	-0.024362927
7	0xbd501290	-0.050798953
8	0x3b79d2b7	0.003811998
9	0x3c4464bf	0.01198691
10	0xbc7b499f	-0.015337377
11	0x3c60af7b	0.013713713
12	0xbd061882	-0.032738216
13	0xbbadc86c	-0.005303433
14	0xbd0f3be4	-0.034969226
15	0x3c3b5664	0.011434171
16	0xbba1b64d	-0.004935062
17	0xbcf1688e	-0.0294688
18	0x3c62e129	0.013847628
19	0x3a2fa831	0.00067007827
20	0x3b69d500	0.0035679936
21	0xbcd304b1	-0.025759073
22	0xbd133662	-0.035940535
23	0x3c152e0c	0.009105217
24	0xbc0444b4	-0.008073021
25	0xbc177295	-0.009243627
26	0x3b1b57f3	0.0023703545
27	0xbcc8f53b	-0.024530997
28	0x3b6f306e	0.0036497372
29	0xbc7ac61f	-0.015306025
30	0xbbef8f62	-0.0073107937
31	0xbce22380	-0.027604818
32	0x3ca3d221	0.019997658
33	0x3c40cb36	0.011767199
34	0xbc76a368	-0.0150536075
35	0xbd246c7f	-0.040142532
36	0xbc41fc16	-0.011839887
37	0xbb74e1b4	-0.0037365975
38	0xbcad77d7	-0.021175308
39	0x3cc9393b	0.024563422
40	0x3c1dfd77	0.00964295
41	0xbd4c438c	-0.049869105
42	0x3c0c9d0d	0.008582366
43	0x3cc5189a	0.024059583
44	0x3c26b42e	0.010174794
45	0x3d6d68ae	0.05796116
46	0xbcf5e3df	-0.030015884
47	0x3ccf4c59	0.02530496
48	0xbd49abf3	-0.04923625
49	0x3cc8f8cd	0.0245327
50	0x3bd6e06c	0.006557515
51	0xbc33289c	-0.010934975
52	0x3cb4bd50	0.022062927
53	0x3ce6dd4f	0.0281817
54	0x3d159ea0	0.03652823
55	0xbcf1992d	-0.029491985
56	0x3a2d1f40	0.0006604083
57	0xbb639ec6	-0.0034732088
58	0xbd4c1b09	-0.04983047
59	0x3c52b9d0	0.012861684
60	0x39a075c6	0.00030605326
61	0xbbd05b03	-0.0063585057
62	0xbd06e03a	-0.032928683
63	0x3bf51cda	0.007480246
64	0xbd5624a3	-0.052281033
65	0x3cd57a40	0.02605927
66	0x3cd460e6	0.025925111
67	0x3d1ea256	0.038729034
68	0xbcd51968	-0.026013091
69	0x3c580d37	0.013186744
70	0x3c43e26e	0.0119558405
71	0xbcb115bf	-0.021616815
72	0x3c763e0d	0.0150294425
73	0x3d052fdd	0.03251635
74	0x3d0169a5	0.03159489
75	0xbc807c00	-0.015684128
76	0xbc98413b	-0.018585792
77	0x3cc9dadf	0.024640499
78	0x3cbcc664	0.023043819
79	0x3cbec51a	0.023287345
80	0x3cbe8ca4	0.023260422
81	0x3c313891	0.010816709
82	0xbd331057	-0.043716755
83	0xbd00d21a	-0.03145037
84	0xbc1fe43b	-0.009759004
85	0xbc04b481	-0.008099676
86	0xbcc4f934	-0.02404461
87	0xbbe57807	-0.0070028338
88	0xbce35f4f	-0.027755408
89	0xbbb94bd2	-0.0056547904
90	0xbc8364d1	-0.016039284
91	0x3c92b89b	0.017910292
92	0xbd60ae99	-0.05485401
93	0xbce4157c	-0.027842276
94	0x3c064319	0.008194708
95	0x3bb6034c	0.0055545922
96	0x3c49c36f	0.012314661
97	0xbc9a227b	-0.01881527
98	0x3c913748	0.017726555
99	0x3ca43985	0.020046959
100	0xbc8bc127	-0.017059876
101	0x3cbb05ae	0.022829857
102	0xbcd14532	-0.02554569
103	0x3d31f9fb	0.04345129
104	0x3b558cc1	0.0032585117
105	0xb9e75873	-0.00044125653
106	0x3c3a233e	0.011360941
107	0xbc8fa02c	-0.01753243
108	0x3c5f3d6a	0.013625482
109	0x3b83b484	0.004019322
110	0x3c9365c5	0.017992863
111	0xbd4a9e55	-0.049467403
112	0xbd1f1d35	-0.038846213
113	0x3affcb8f	0.0019515621
114	0xbcf0c43b	-0.029390445
115	0x3c5175dc	0.0127844475
116	0xbd388514	-0.04504879
117	0xbcf1bfb1	-0.02951035
118	0x3d3dc38f	0.046329077
119	0x3c763f0a	0.015029678
120	0xbcb62fe3	-0.022239631
121	0x3d11c3c9	0.035587106
122	0x3a8dbea7	0.0010814265
123	0x3cb26ad4	0.021779455
124	0xbb3e85ff	-0.0029071567
125	0xbd129f13	-0.035796236
126	0xbd1cf047	-0.038315084
127	0xbd0e4810	-0.034736693

fc2.weight f4 [10, 128]
0	0xbd2f9652	-0.042867966
1	0x3d303c0a	0.043026008
2	0xbd637c50	-0.055538476
3	0xbd0277e0	-0.031852603
4	0xbd37b2c1	-0.044848207
5	0xbd3eeb17	-0.046610918
6	0xbda3366a	-0.07969363
7	0x3da46d53	0.080286644
8	0xbdb4674f	-0.08808767
9	0x3d963590	0.07334435
10	0x3db3cba6	0.08779077
11	0x3d442fa8	0.04789701
12	0x3d893d30	0.06701124
13	0xbdc3657a	-0.095408395
14	0xbdbd3d80	-0.09240246
15	0x3d6127e4	0.054969683
16	0x3d90d25b	0.07071372
17	0xbdafd117	-0.085848026
18	0xbd46427b	-0.048403244
19	0xbd6f52d3	-0.058428597
20	0xb9aab5cf	-0.00032560385
21	0xbd97a21b	-0.07403966
22	0x3d53f798	0.051749796
23	0x3d285bf8	0.041103333
24	0x3c98c00c	0.018646263
25	0x3cd3757e	0.02581286
26	0xb9df1361	-0.00042548313
27	0x3cbf3632	0.023341272
28	0xbd865cb5	-0.06560651
29	0x3cb5127c	0.02210354
30	0xbd95d3af	-0.07315766
31	0xbc1c7e1a	-0.009551549
32	0xbd94fa75	-0.072743334
33	0xbbb257bc	-0.0054425877
34	0xbd8cd1b3	-0.068759345
35	0xbcea484c	-0.028598927
36	0xbda04ebc	-0.078275174
37	0x3cdc9b29	0.026929455
38	0xbd18c1b9	-0.037294123
39	0xbd9db66e	-0.07700811
40	0xbd01b41e	-0.031665914
41	0x3dd87393	0.10568919
42	0x3cc81d27	0.024427963
43	0x3d546398	0.051852793
44	0x3b54c853	0.0032468035
45	0xbce4f14b	-0.027947089
46	0x3cfa7eb1	0.03057799
47	0x3d5716b0	0.05251187
48	0x3cc484f6	0.023989182
49	0x3d550cd9	0.052014206
50	0x3b80a91a	0.0039264085
51	0x3d2162eb	0.039400976
52	0xbcaf507f	-0.021400688
53	0x3d83d661	0.06437374
54	0x3cf38f0d	0.029731298
55	0xba8932bf	-0.0010467394
56	0xbd9950d3	-0.07486119
57	0x3cb81b53	0.022473967
58	0xbde184a3	-0.110116266
59	0x3a9fadf4	0.0012182579
60	0xbdbbd354	-0.09171167
61	0xbc1e76a1	-0.009671838
62	0xbd5f458c	-0.054509684
63	0xbdbb173d	-0.09135292
64	0x3d0b3123	0.033982407
65	0xbc9dc304	-0.01925803
66	0xbcb5c02b	-0.02218636
67	0xbc202564	-0.00977454
68	0xbc081706	-0.00830627
69	0x3d09ab52	0.03361065
70	0xbdb0ff61	-0.0864246
71	0x3d349bbf	0.044093844
72	0xbcea6c4c	-0.028616093
73	0x3d8f7b7f	0.07005977
74	0x3cce6ade	0.025197443
75	0x3d33cd7a	0.04389713
76	0x3dcbaa78	0.09944624
77	0x3d85e67b	0.06538101
78	0x3d916a9f	0.071004145
79	0x3d3057e5	0.043052573
80	0xbd2dc60d	-0.042425204
81	0x3d01b240	0.031664133
82	0x3cbbf256	0.022942703
83	0xbe1350da	-0.14386311
84	0x3dbb8caa	0.09157689
85	0xbd1c4cd4	-0.038159207
86	0x3ca6b87d	0.020351643
87	0xbc4da96f	-0.012552603
88	0xbd82a8c1	-0.063798435
89	0xbcbe3b08	-0.023221508
90	0xbd9f8c0f	-0.07790386
91	0x3d8aaf6b	0.067717396
92	0x3d3b208b	0.045685332
93	0xbd6a752f	-0.05724066
94	0x3d1f45f6	0.03888508
95	0x3d67f5bb	0.05663083
96	0xbd2c48b7	-0.042061534
97	0xbd8eebc1	-0.0697856
98	0xbc5ae985	-0.013361339
99	0x3cfcf55e	0.030878719
100	0x3dc23b3c	0.09483954
101	0xbd83877c	-0.06422326
102	0xbd2d7806	-0.04235079
103	0x3da32e28	0.07967788
104	0x3c6983fd	0.01425266
105	0x3d4a4c67	0.04938927
106	0xbda379bb	-0.079822026
107	0x3ccfad2b	0.025351128
108	0xbd1759f3	-0.036951017
109	0xbcf92cf4	-0.030416943
110	0xbda721a7	-0.081607156
111	0x384370b1	4.6596575e-05
112	0x3d240af9	0.040049527
113	0xbda05119	-0.07827968
114	0x3d8cc1a2	0.0687287
115	0xbcb44e49	-0.022009986
116	0xbce1ce65	-0.027564237
117	0xbd939485	-0.07206062
118	0x3bacb335	0.0052703866
119	0xbda3e52d	-0.08002696
120	0x3d66ede7	0.056379225
121	0x3d12da03	0.035852443
122	0x3d875998	0.066088855
123	0x3d1c206f	0.03811687
124	0xbd82c12a	-0.06384499
125	0x3d0239e9	0.03179351
126	0x3d82f165	0.063936986
127	0xbc4dcd27	-0.012561119
128	0xbd1edfa3	-0.038787495
129	0x3d7c2729	0.061560784
130	0xbd075016	-0.03303536
131	0x3dae3f0e	0.085081205
132	0xbcbcf282	-0.023064855
133	0xbd58ffcb	-0.05297832
134	0xbd9ef840	-0.07762194
135	0x3d876c58	0.06612462
136	0xbd002db0	-0.03129357
137	0xbd1ee488	-0.038792163
138	0xbdef331e	-0.11679672
139	0x3d761c29	0.06008545
140	0xbc8f1b78	-0.017469153
141	0x3da40db1	0.08010424
142	0x3c2a66af	0.010400458
143	0xbc940770	-0.018069953
144	0x3cd9aed6	0.026572626
145	0x3d3988d2	0.045296498
146	0xbda7e616	-0.08198182
147	0xbd2ae68b	-0.04172377
148	0xbbf3615e	-0.0074273786
149	0x3d8fc605	0.07020191
150	0x3cbc5702	0.022990707
151	0xbdf38df8	-0.11892313
152	0x3dee5112	0.11636557
153	0x3c76f5b9	0.015073233
154	0x3cab888d	0.020939136
155	0xbd128b44	-0.035777345
156	0x3d5359f4	0.051599458
157	0x3d350a2b	0.04419915
158	0x3ccdd56b	0.02512618
159	0x3c96473b	0.018344512
160	0x3d27dc0b	0.040981334
161	0x3ca81698	0.020518586
162	0x3bb5484d	0.0055323006
163	0x3d1c028e	0.038088374
164	0x3c13f745	0.009031122
165	0x3d8b9f20	0.0681746
166	0x3db52371	0.088446505
167	0x3cd143e6	0.025545072
168	0x3d6c0184	0.057618633
169	0x3b233413	0.0024902865
170	0x3d804808	0.06263739
171	0x3cdae3cf	0.026719956
172	0xbd35c76a	-0.04437963
173	0x3d01daa3	0.03170265
174	0xbd5aa064	-0.053375617
175	0xbd2c71c7	-0.042100694
176	0x3d727a15	0.059198458
177	0xbcd941dd	-0.026520664
178	0x3b4f00a9	0.0031586087
179	0xbd940bdd	-0.07228825
180	0x3c09c075	0.008407702
181	0x3d89a8e6	0.06721668
182	0xbd3a7859	-0.04552493
183	0x3bf78f17	0.0075548994
184	0x3c89c298	0.016816422
185	0xbdafa4ad	-0.08576331
186	0xbd71401b	-0.058899026
187	0xbc4af6ad	-0.012387914
188	0xbd68786a	-0.05675546
189	0x3d878920	0.066179514
190	0xbd2f1ad0	-0.04275018
191	0xbc90d75b	-0.017680814
192	0xbd919fa2	-0.07110526
193	0x3d58dc09	0.052944217
194	0x3ad6de50	0.0016393159
195	0xbd9bc43b	-0.07605787
196	0x3c4d5e35	0.012534668
197	0xbb91eca4	-0.0044532586
198	0xbda03cc8	-0.07824093
199	0x3d2f525c	0.042803153
200	0xbd9d9d55	-0.07696024
201	0xbd339ed5	-0.043852646
202	0x3cb1df56	0.02171294
203	0xbccf94a9	-0.025339441
204	0x3d805337	0.06265872
205	0x3d3a5cb8	0.04549858
206	0xbc8a98e7	-0.016918613
207	0xbd97b4b4	-0.07407513
208	0xbd077370	-0.033069074
209	0xbd45c1d6	-0.04828056
210	0x3bb53fb3	0.005531275
211	0x3db39ea5	0.087704934
212	0x3d8a6817	0.06758135
213	0x3d91c29c	0.07117197
214	0x3c07fbd0	0.008299783
215	0x3d22f9c1	0.039788965
216	0xbcfba213	-0.030716931
217	0xbe2d50cf	-0.16925357
218	0x3d2fb3e0	0.04289615
219	0x3c64433f	0.013932048
220	0x3c947dbb	0.01812636
221	0xbd865b01	-0.06560326
222	0x3d57ea78	0.05271384
223	0x3b0ed30a	0.002179327
224	0xbd6c79d6	-0.05773338
225	0xbd706c48	-0.058697015
226	0x3d14d913	0.03633983
227	0x3d404886	0.046944164
228	0xbd708db8	-0.058728904
229	0x3ce4d13c	0.027931802
230	0x3d3c3670	0.045950353
231	0x3c4511dc	0.012028184
232	0x3cc7915e	0.024361309
233	0x3d6c4452	0.057682343
234	0x3d19099d	0.037362684
235	0x3d9dd56f	0.07706725
236	0x3d69095f	0.056893703
237	0xbd4e4256	-0.05035623
238	0xbdc0ad5c	-0.09408066
239	0x3d9b18e3	0.07573106
240	0xbc7c10f8	-0.015384905
241	0xbd8c993a	-0.06865163
242	0x3d9b322a	0.075779274
243	0x3cf2f045	0.029655585
244	0xbd4cbe79	-0.049986336
245	0x3d8144da	0.063119605
246	0x3d851104	0.06497386
247	0xbd136c57	-0.035991993
248	0x3caa8576	0.020815592
249	0xbe26d5a5	-0.16292436
250	0xbd5ce473	-0.053928804
251	0xbbbb9993	-0.0057250946
252	0xbd4e6304	-0.050387397
253	0xbd836e22	-0.064174905
254	0xbd93f9ea	-0.07225402
255	0x3c596190	0.01326789

fc2.bias f4 [10]
0	0xbd0c4917	-0.03424939
1	0x3cc54f29	0.024085598
2	0x3dba0112	0.090822354
3	0xbd4507be	-0.048103087
4	0xbc6c5252	-0.014423924
5	0xbda3ce58	-0.07998341
6	0x3d6b7925	0.05748858
7	0x3d897713	0.06712165
8	0xbdbe8af3	-0.09303846
9	0xbe003045	-0.12518413
